<?xml version="1.0"?>
<net name="onnx_Frontend_IR" version="11">
	<layers>
		<layer id="0" name="images" type="Parameter" version="opset1">
			<data shape="?,3,640,640" element_type="f32" />
			<output>
				<port id="0" precision="FP32" names="images">
					<dim>-1</dim>
					<dim>3</dim>
					<dim>640</dim>
					<dim>640</dim>
				</port>
			</output>
		</layer>
		<layer id="1" name="orig_target_sizes" type="Parameter" version="opset1">
			<data shape="?,2" element_type="i64" />
			<rt_info>
				<attribute name="old_api_map_element_type" version="0" value="i32" />
			</rt_info>
			<output>
				<port id="0" precision="I64" names="orig_target_sizes">
					<dim>-1</dim>
					<dim>2</dim>
				</port>
			</output>
		</layer>
		<layer id="2" name="_to_copy_compressed" type="Const" version="opset1">
			<data element_type="f16" shape="1, 8400, 1" offset="0" size="16800" />
			<output>
				<port id="0" precision="FP16" names="_to_copy">
					<dim>1</dim>
					<dim>8400</dim>
					<dim>1</dim>
				</port>
			</output>
		</layer>
		<layer id="3" name="_to_copy" type="Convert" version="opset1">
			<data destination_type="f32" />
			<rt_info>
				<attribute name="decompression" version="0" />
			</rt_info>
			<input>
				<port id="0" precision="FP16">
					<dim>1</dim>
					<dim>8400</dim>
					<dim>1</dim>
				</port>
			</input>
			<output>
				<port id="1" precision="FP32">
					<dim>1</dim>
					<dim>8400</dim>
					<dim>1</dim>
				</port>
			</output>
		</layer>
		<layer id="4" name="Constant_12910_compressed" type="Const" version="opset1">
			<data element_type="f16" shape="1, 1, 1, 1" offset="16800" size="2" />
			<output>
				<port id="0" precision="FP16">
					<dim>1</dim>
					<dim>1</dim>
					<dim>1</dim>
					<dim>1</dim>
				</port>
			</output>
		</layer>
		<layer id="5" name="Constant_12910" type="Convert" version="opset1">
			<data destination_type="f32" />
			<rt_info>
				<attribute name="decompression" version="0" />
			</rt_info>
			<input>
				<port id="0" precision="FP16">
					<dim>1</dim>
					<dim>1</dim>
					<dim>1</dim>
					<dim>1</dim>
				</port>
			</input>
			<output>
				<port id="1" precision="FP32">
					<dim>1</dim>
					<dim>1</dim>
					<dim>1</dim>
					<dim>1</dim>
				</port>
			</output>
		</layer>
		<layer id="6" name="Constant_12908_compressed" type="Const" version="opset1">
			<data element_type="f16" shape="1, 1, 1, 1" offset="16802" size="2" />
			<output>
				<port id="0" precision="FP16">
					<dim>1</dim>
					<dim>1</dim>
					<dim>1</dim>
					<dim>1</dim>
				</port>
			</output>
		</layer>
		<layer id="7" name="Constant_12908" type="Convert" version="opset1">
			<data destination_type="f32" />
			<rt_info>
				<attribute name="decompression" version="0" />
			</rt_info>
			<input>
				<port id="0" precision="FP16">
					<dim>1</dim>
					<dim>1</dim>
					<dim>1</dim>
					<dim>1</dim>
				</port>
			</input>
			<output>
				<port id="1" precision="FP32">
					<dim>1</dim>
					<dim>1</dim>
					<dim>1</dim>
					<dim>1</dim>
				</port>
			</output>
		</layer>
		<layer id="8" name="Constant_12900_compressed" type="Const" version="opset1">
			<data element_type="f16" shape="1, 1, 1, 1" offset="16804" size="2" />
			<output>
				<port id="0" precision="FP16">
					<dim>1</dim>
					<dim>1</dim>
					<dim>1</dim>
					<dim>1</dim>
				</port>
			</output>
		</layer>
		<layer id="9" name="Constant_12900" type="Convert" version="opset1">
			<data destination_type="f32" />
			<rt_info>
				<attribute name="decompression" version="0" />
			</rt_info>
			<input>
				<port id="0" precision="FP16">
					<dim>1</dim>
					<dim>1</dim>
					<dim>1</dim>
					<dim>1</dim>
				</port>
			</input>
			<output>
				<port id="1" precision="FP32">
					<dim>1</dim>
					<dim>1</dim>
					<dim>1</dim>
					<dim>1</dim>
				</port>
			</output>
		</layer>
		<layer id="10" name="Constant_12898_compressed" type="Const" version="opset1">
			<data element_type="f16" shape="1, 1, 1, 1" offset="16806" size="2" />
			<output>
				<port id="0" precision="FP16">
					<dim>1</dim>
					<dim>1</dim>
					<dim>1</dim>
					<dim>1</dim>
				</port>
			</output>
		</layer>
		<layer id="11" name="Constant_12898" type="Convert" version="opset1">
			<data destination_type="f32" />
			<rt_info>
				<attribute name="decompression" version="0" />
			</rt_info>
			<input>
				<port id="0" precision="FP16">
					<dim>1</dim>
					<dim>1</dim>
					<dim>1</dim>
					<dim>1</dim>
				</port>
			</input>
			<output>
				<port id="1" precision="FP32">
					<dim>1</dim>
					<dim>1</dim>
					<dim>1</dim>
					<dim>1</dim>
				</port>
			</output>
		</layer>
		<layer id="12" name="Constant_12890_compressed" type="Const" version="opset1">
			<data element_type="f16" shape="1, 1, 1, 1" offset="16808" size="2" />
			<output>
				<port id="0" precision="FP16">
					<dim>1</dim>
					<dim>1</dim>
					<dim>1</dim>
					<dim>1</dim>
				</port>
			</output>
		</layer>
		<layer id="13" name="Constant_12890" type="Convert" version="opset1">
			<data destination_type="f32" />
			<rt_info>
				<attribute name="decompression" version="0" />
			</rt_info>
			<input>
				<port id="0" precision="FP16">
					<dim>1</dim>
					<dim>1</dim>
					<dim>1</dim>
					<dim>1</dim>
				</port>
			</input>
			<output>
				<port id="1" precision="FP32">
					<dim>1</dim>
					<dim>1</dim>
					<dim>1</dim>
					<dim>1</dim>
				</port>
			</output>
		</layer>
		<layer id="14" name="Constant_12888_compressed" type="Const" version="opset1">
			<data element_type="f16" shape="1, 1, 1, 1" offset="16810" size="2" />
			<output>
				<port id="0" precision="FP16">
					<dim>1</dim>
					<dim>1</dim>
					<dim>1</dim>
					<dim>1</dim>
				</port>
			</output>
		</layer>
		<layer id="15" name="Constant_12888" type="Convert" version="opset1">
			<data destination_type="f32" />
			<rt_info>
				<attribute name="decompression" version="0" />
			</rt_info>
			<input>
				<port id="0" precision="FP16">
					<dim>1</dim>
					<dim>1</dim>
					<dim>1</dim>
					<dim>1</dim>
				</port>
			</input>
			<output>
				<port id="1" precision="FP32">
					<dim>1</dim>
					<dim>1</dim>
					<dim>1</dim>
					<dim>1</dim>
				</port>
			</output>
		</layer>
		<layer id="16" name="Constant_12880_compressed" type="Const" version="opset1">
			<data element_type="f16" shape="1, 1, 1, 1" offset="16812" size="2" />
			<output>
				<port id="0" precision="FP16">
					<dim>1</dim>
					<dim>1</dim>
					<dim>1</dim>
					<dim>1</dim>
				</port>
			</output>
		</layer>
		<layer id="17" name="Constant_12880" type="Convert" version="opset1">
			<data destination_type="f32" />
			<rt_info>
				<attribute name="decompression" version="0" />
			</rt_info>
			<input>
				<port id="0" precision="FP16">
					<dim>1</dim>
					<dim>1</dim>
					<dim>1</dim>
					<dim>1</dim>
				</port>
			</input>
			<output>
				<port id="1" precision="FP32">
					<dim>1</dim>
					<dim>1</dim>
					<dim>1</dim>
					<dim>1</dim>
				</port>
			</output>
		</layer>
		<layer id="18" name="Constant_12878_compressed" type="Const" version="opset1">
			<data element_type="f16" shape="1, 1, 1, 1" offset="16814" size="2" />
			<output>
				<port id="0" precision="FP16">
					<dim>1</dim>
					<dim>1</dim>
					<dim>1</dim>
					<dim>1</dim>
				</port>
			</output>
		</layer>
		<layer id="19" name="Constant_12878" type="Convert" version="opset1">
			<data destination_type="f32" />
			<rt_info>
				<attribute name="decompression" version="0" />
			</rt_info>
			<input>
				<port id="0" precision="FP16">
					<dim>1</dim>
					<dim>1</dim>
					<dim>1</dim>
					<dim>1</dim>
				</port>
			</input>
			<output>
				<port id="1" precision="FP32">
					<dim>1</dim>
					<dim>1</dim>
					<dim>1</dim>
					<dim>1</dim>
				</port>
			</output>
		</layer>
		<layer id="20" name="Constant_12870_compressed" type="Const" version="opset1">
			<data element_type="f16" shape="1, 1, 1, 1" offset="16816" size="2" />
			<output>
				<port id="0" precision="FP16">
					<dim>1</dim>
					<dim>1</dim>
					<dim>1</dim>
					<dim>1</dim>
				</port>
			</output>
		</layer>
		<layer id="21" name="Constant_12870" type="Convert" version="opset1">
			<data destination_type="f32" />
			<rt_info>
				<attribute name="decompression" version="0" />
			</rt_info>
			<input>
				<port id="0" precision="FP16">
					<dim>1</dim>
					<dim>1</dim>
					<dim>1</dim>
					<dim>1</dim>
				</port>
			</input>
			<output>
				<port id="1" precision="FP32">
					<dim>1</dim>
					<dim>1</dim>
					<dim>1</dim>
					<dim>1</dim>
				</port>
			</output>
		</layer>
		<layer id="22" name="Constant_12868_compressed" type="Const" version="opset1">
			<data element_type="f16" shape="1, 1, 1, 1" offset="16818" size="2" />
			<output>
				<port id="0" precision="FP16">
					<dim>1</dim>
					<dim>1</dim>
					<dim>1</dim>
					<dim>1</dim>
				</port>
			</output>
		</layer>
		<layer id="23" name="Constant_12868" type="Convert" version="opset1">
			<data destination_type="f32" />
			<rt_info>
				<attribute name="decompression" version="0" />
			</rt_info>
			<input>
				<port id="0" precision="FP16">
					<dim>1</dim>
					<dim>1</dim>
					<dim>1</dim>
					<dim>1</dim>
				</port>
			</input>
			<output>
				<port id="1" precision="FP32">
					<dim>1</dim>
					<dim>1</dim>
					<dim>1</dim>
					<dim>1</dim>
				</port>
			</output>
		</layer>
		<layer id="24" name="Constant_12860_compressed" type="Const" version="opset1">
			<data element_type="f16" shape="1, 1, 1, 1" offset="16820" size="2" />
			<output>
				<port id="0" precision="FP16">
					<dim>1</dim>
					<dim>1</dim>
					<dim>1</dim>
					<dim>1</dim>
				</port>
			</output>
		</layer>
		<layer id="25" name="Constant_12860" type="Convert" version="opset1">
			<data destination_type="f32" />
			<rt_info>
				<attribute name="decompression" version="0" />
			</rt_info>
			<input>
				<port id="0" precision="FP16">
					<dim>1</dim>
					<dim>1</dim>
					<dim>1</dim>
					<dim>1</dim>
				</port>
			</input>
			<output>
				<port id="1" precision="FP32">
					<dim>1</dim>
					<dim>1</dim>
					<dim>1</dim>
					<dim>1</dim>
				</port>
			</output>
		</layer>
		<layer id="26" name="Constant_12858_compressed" type="Const" version="opset1">
			<data element_type="f16" shape="1, 1, 1, 1" offset="16822" size="2" />
			<output>
				<port id="0" precision="FP16">
					<dim>1</dim>
					<dim>1</dim>
					<dim>1</dim>
					<dim>1</dim>
				</port>
			</output>
		</layer>
		<layer id="27" name="Constant_12858" type="Convert" version="opset1">
			<data destination_type="f32" />
			<rt_info>
				<attribute name="decompression" version="0" />
			</rt_info>
			<input>
				<port id="0" precision="FP16">
					<dim>1</dim>
					<dim>1</dim>
					<dim>1</dim>
					<dim>1</dim>
				</port>
			</input>
			<output>
				<port id="1" precision="FP32">
					<dim>1</dim>
					<dim>1</dim>
					<dim>1</dim>
					<dim>1</dim>
				</port>
			</output>
		</layer>
		<layer id="28" name="Constant_12852_compressed" type="Const" version="opset1">
			<data element_type="f16" shape="1, 1, 1, 1" offset="16824" size="2" />
			<output>
				<port id="0" precision="FP16">
					<dim>1</dim>
					<dim>1</dim>
					<dim>1</dim>
					<dim>1</dim>
				</port>
			</output>
		</layer>
		<layer id="29" name="Constant_12852" type="Convert" version="opset1">
			<data destination_type="f32" />
			<rt_info>
				<attribute name="decompression" version="0" />
			</rt_info>
			<input>
				<port id="0" precision="FP16">
					<dim>1</dim>
					<dim>1</dim>
					<dim>1</dim>
					<dim>1</dim>
				</port>
			</input>
			<output>
				<port id="1" precision="FP32">
					<dim>1</dim>
					<dim>1</dim>
					<dim>1</dim>
					<dim>1</dim>
				</port>
			</output>
		</layer>
		<layer id="30" name="model.backbone.stem.stem1.conv.weight_compressed" type="Const" version="opset1">
			<data element_type="f16" shape="16, 3, 3, 3" offset="16826" size="864" />
			<output>
				<port id="0" precision="FP16" names="model.backbone.stem.stem1.conv.weight">
					<dim>16</dim>
					<dim>3</dim>
					<dim>3</dim>
					<dim>3</dim>
				</port>
			</output>
		</layer>
		<layer id="31" name="model.backbone.stem.stem1.conv.weight" type="Convert" version="opset1">
			<data destination_type="f32" />
			<rt_info>
				<attribute name="decompression" version="0" />
			</rt_info>
			<input>
				<port id="0" precision="FP16">
					<dim>16</dim>
					<dim>3</dim>
					<dim>3</dim>
					<dim>3</dim>
				</port>
			</input>
			<output>
				<port id="1" precision="FP32">
					<dim>16</dim>
					<dim>3</dim>
					<dim>3</dim>
					<dim>3</dim>
				</port>
			</output>
		</layer>
		<layer id="32" name="node_Conv_1528/WithoutBiases" type="Convolution" version="opset1">
			<data strides="2, 2" dilations="1, 1" pads_begin="1, 1" pads_end="1, 1" auto_pad="explicit" />
			<input>
				<port id="0" precision="FP32">
					<dim>-1</dim>
					<dim>3</dim>
					<dim>640</dim>
					<dim>640</dim>
				</port>
				<port id="1" precision="FP32">
					<dim>16</dim>
					<dim>3</dim>
					<dim>3</dim>
					<dim>3</dim>
				</port>
			</input>
			<output>
				<port id="2" precision="FP32">
					<dim>-1</dim>
					<dim>16</dim>
					<dim>320</dim>
					<dim>320</dim>
				</port>
			</output>
		</layer>
		<layer id="33" name="Reshape_22_compressed" type="Const" version="opset1">
			<data element_type="f16" shape="1, 16, 1, 1" offset="17690" size="32" />
			<output>
				<port id="0" precision="FP16">
					<dim>1</dim>
					<dim>16</dim>
					<dim>1</dim>
					<dim>1</dim>
				</port>
			</output>
		</layer>
		<layer id="34" name="Reshape_22" type="Convert" version="opset1">
			<data destination_type="f32" />
			<rt_info>
				<attribute name="decompression" version="0" />
			</rt_info>
			<input>
				<port id="0" precision="FP16">
					<dim>1</dim>
					<dim>16</dim>
					<dim>1</dim>
					<dim>1</dim>
				</port>
			</input>
			<output>
				<port id="1" precision="FP32">
					<dim>1</dim>
					<dim>16</dim>
					<dim>1</dim>
					<dim>1</dim>
				</port>
			</output>
		</layer>
		<layer id="35" name="node_Conv_1528" type="Add" version="opset1">
			<data auto_broadcast="numpy" />
			<input>
				<port id="0" precision="FP32">
					<dim>-1</dim>
					<dim>16</dim>
					<dim>320</dim>
					<dim>320</dim>
				</port>
				<port id="1" precision="FP32">
					<dim>1</dim>
					<dim>16</dim>
					<dim>1</dim>
					<dim>1</dim>
				</port>
			</input>
			<output>
				<port id="2" precision="FP32" names="getitem">
					<dim>-1</dim>
					<dim>16</dim>
					<dim>320</dim>
					<dim>320</dim>
				</port>
			</output>
		</layer>
		<layer id="36" name="node_relu" type="ReLU" version="opset1">
			<input>
				<port id="0" precision="FP32">
					<dim>-1</dim>
					<dim>16</dim>
					<dim>320</dim>
					<dim>320</dim>
				</port>
			</input>
			<output>
				<port id="1" precision="FP32" names="relu">
					<dim>-1</dim>
					<dim>16</dim>
					<dim>320</dim>
					<dim>320</dim>
				</port>
			</output>
		</layer>
		<layer id="37" name="node_mul_5" type="Multiply" version="opset1">
			<data auto_broadcast="numpy" />
			<input>
				<port id="0" precision="FP32">
					<dim>1</dim>
					<dim>1</dim>
					<dim>1</dim>
					<dim>1</dim>
				</port>
				<port id="1" precision="FP32">
					<dim>-1</dim>
					<dim>16</dim>
					<dim>320</dim>
					<dim>320</dim>
				</port>
			</input>
			<output>
				<port id="2" precision="FP32" names="mul_5">
					<dim>-1</dim>
					<dim>16</dim>
					<dim>320</dim>
					<dim>320</dim>
				</port>
			</output>
		</layer>
		<layer id="38" name="Constant_12853_compressed" type="Const" version="opset1">
			<data element_type="f16" shape="1, 1, 1, 1" offset="17722" size="2" />
			<output>
				<port id="0" precision="FP16">
					<dim>1</dim>
					<dim>1</dim>
					<dim>1</dim>
					<dim>1</dim>
				</port>
			</output>
		</layer>
		<layer id="39" name="Constant_12853" type="Convert" version="opset1">
			<data destination_type="f32" />
			<rt_info>
				<attribute name="decompression" version="0" />
			</rt_info>
			<input>
				<port id="0" precision="FP16">
					<dim>1</dim>
					<dim>1</dim>
					<dim>1</dim>
					<dim>1</dim>
				</port>
			</input>
			<output>
				<port id="1" precision="FP32">
					<dim>1</dim>
					<dim>1</dim>
					<dim>1</dim>
					<dim>1</dim>
				</port>
			</output>
		</layer>
		<layer id="40" name="node_add_5" type="Add" version="opset1">
			<data auto_broadcast="numpy" />
			<input>
				<port id="0" precision="FP32">
					<dim>-1</dim>
					<dim>16</dim>
					<dim>320</dim>
					<dim>320</dim>
				</port>
				<port id="1" precision="FP32">
					<dim>1</dim>
					<dim>1</dim>
					<dim>1</dim>
					<dim>1</dim>
				</port>
			</input>
			<output>
				<port id="2" precision="FP32" names="add_5">
					<dim>-1</dim>
					<dim>16</dim>
					<dim>320</dim>
					<dim>320</dim>
				</port>
			</output>
		</layer>
		<layer id="41" name="node_max_pool2d" type="MaxPool" version="opset8">
			<data strides="1, 1" dilations="1, 1" pads_begin="0, 0" pads_end="1, 1" kernel="2, 2" rounding_type="ceil" auto_pad="explicit" index_element_type="i64" axis="0" />
			<input>
				<port id="0" precision="FP32">
					<dim>-1</dim>
					<dim>16</dim>
					<dim>320</dim>
					<dim>320</dim>
				</port>
			</input>
			<output>
				<port id="1" precision="FP32" names="max_pool2d">
					<dim>-1</dim>
					<dim>16</dim>
					<dim>320</dim>
					<dim>320</dim>
				</port>
				<port id="2" precision="I64">
					<dim>-1</dim>
					<dim>16</dim>
					<dim>320</dim>
					<dim>320</dim>
				</port>
			</output>
		</layer>
		<layer id="42" name="Constant_12856_compressed" type="Const" version="opset1">
			<data element_type="f16" shape="1, 1, 1, 1" offset="17724" size="2" />
			<output>
				<port id="0" precision="FP16">
					<dim>1</dim>
					<dim>1</dim>
					<dim>1</dim>
					<dim>1</dim>
				</port>
			</output>
		</layer>
		<layer id="43" name="Constant_12856" type="Convert" version="opset1">
			<data destination_type="f32" />
			<rt_info>
				<attribute name="decompression" version="0" />
			</rt_info>
			<input>
				<port id="0" precision="FP16">
					<dim>1</dim>
					<dim>1</dim>
					<dim>1</dim>
					<dim>1</dim>
				</port>
			</input>
			<output>
				<port id="1" precision="FP32">
					<dim>1</dim>
					<dim>1</dim>
					<dim>1</dim>
					<dim>1</dim>
				</port>
			</output>
		</layer>
		<layer id="44" name="Constant_12854_compressed" type="Const" version="opset1">
			<data element_type="f16" shape="1, 1, 1, 1" offset="17726" size="2" />
			<output>
				<port id="0" precision="FP16">
					<dim>1</dim>
					<dim>1</dim>
					<dim>1</dim>
					<dim>1</dim>
				</port>
			</output>
		</layer>
		<layer id="45" name="Constant_12854" type="Convert" version="opset1">
			<data destination_type="f32" />
			<rt_info>
				<attribute name="decompression" version="0" />
			</rt_info>
			<input>
				<port id="0" precision="FP16">
					<dim>1</dim>
					<dim>1</dim>
					<dim>1</dim>
					<dim>1</dim>
				</port>
			</input>
			<output>
				<port id="1" precision="FP32">
					<dim>1</dim>
					<dim>1</dim>
					<dim>1</dim>
					<dim>1</dim>
				</port>
			</output>
		</layer>
		<layer id="46" name="model.backbone.stem.stem2a.conv.weight_compressed" type="Const" version="opset1">
			<data element_type="f16" shape="8, 16, 2, 2" offset="17728" size="1024" />
			<output>
				<port id="0" precision="FP16" names="model.backbone.stem.stem2a.conv.weight">
					<dim>8</dim>
					<dim>16</dim>
					<dim>2</dim>
					<dim>2</dim>
				</port>
			</output>
		</layer>
		<layer id="47" name="model.backbone.stem.stem2a.conv.weight" type="Convert" version="opset1">
			<data destination_type="f32" />
			<rt_info>
				<attribute name="decompression" version="0" />
			</rt_info>
			<input>
				<port id="0" precision="FP16">
					<dim>8</dim>
					<dim>16</dim>
					<dim>2</dim>
					<dim>2</dim>
				</port>
			</input>
			<output>
				<port id="1" precision="FP32">
					<dim>8</dim>
					<dim>16</dim>
					<dim>2</dim>
					<dim>2</dim>
				</port>
			</output>
		</layer>
		<layer id="48" name="node_Conv_1530/WithoutBiases" type="Convolution" version="opset1">
			<data strides="1, 1" dilations="1, 1" pads_begin="0, 0" pads_end="1, 1" auto_pad="explicit" />
			<input>
				<port id="0" precision="FP32">
					<dim>-1</dim>
					<dim>16</dim>
					<dim>320</dim>
					<dim>320</dim>
				</port>
				<port id="1" precision="FP32">
					<dim>8</dim>
					<dim>16</dim>
					<dim>2</dim>
					<dim>2</dim>
				</port>
			</input>
			<output>
				<port id="2" precision="FP32">
					<dim>-1</dim>
					<dim>8</dim>
					<dim>320</dim>
					<dim>320</dim>
				</port>
			</output>
		</layer>
		<layer id="49" name="Reshape_42_compressed" type="Const" version="opset1">
			<data element_type="f16" shape="1, 8, 1, 1" offset="18752" size="16" />
			<output>
				<port id="0" precision="FP16">
					<dim>1</dim>
					<dim>8</dim>
					<dim>1</dim>
					<dim>1</dim>
				</port>
			</output>
		</layer>
		<layer id="50" name="Reshape_42" type="Convert" version="opset1">
			<data destination_type="f32" />
			<rt_info>
				<attribute name="decompression" version="0" />
			</rt_info>
			<input>
				<port id="0" precision="FP16">
					<dim>1</dim>
					<dim>8</dim>
					<dim>1</dim>
					<dim>1</dim>
				</port>
			</input>
			<output>
				<port id="1" precision="FP32">
					<dim>1</dim>
					<dim>8</dim>
					<dim>1</dim>
					<dim>1</dim>
				</port>
			</output>
		</layer>
		<layer id="51" name="node_Conv_1530" type="Add" version="opset1">
			<data auto_broadcast="numpy" />
			<input>
				<port id="0" precision="FP32">
					<dim>-1</dim>
					<dim>8</dim>
					<dim>320</dim>
					<dim>320</dim>
				</port>
				<port id="1" precision="FP32">
					<dim>1</dim>
					<dim>8</dim>
					<dim>1</dim>
					<dim>1</dim>
				</port>
			</input>
			<output>
				<port id="2" precision="FP32" names="getitem_3">
					<dim>-1</dim>
					<dim>8</dim>
					<dim>320</dim>
					<dim>320</dim>
				</port>
			</output>
		</layer>
		<layer id="52" name="node_relu_1" type="ReLU" version="opset1">
			<input>
				<port id="0" precision="FP32">
					<dim>-1</dim>
					<dim>8</dim>
					<dim>320</dim>
					<dim>320</dim>
				</port>
			</input>
			<output>
				<port id="1" precision="FP32" names="relu_1">
					<dim>-1</dim>
					<dim>8</dim>
					<dim>320</dim>
					<dim>320</dim>
				</port>
			</output>
		</layer>
		<layer id="53" name="node_mul_6" type="Multiply" version="opset1">
			<data auto_broadcast="numpy" />
			<input>
				<port id="0" precision="FP32">
					<dim>1</dim>
					<dim>1</dim>
					<dim>1</dim>
					<dim>1</dim>
				</port>
				<port id="1" precision="FP32">
					<dim>-1</dim>
					<dim>8</dim>
					<dim>320</dim>
					<dim>320</dim>
				</port>
			</input>
			<output>
				<port id="2" precision="FP32" names="mul_6">
					<dim>-1</dim>
					<dim>8</dim>
					<dim>320</dim>
					<dim>320</dim>
				</port>
			</output>
		</layer>
		<layer id="54" name="Constant_12855_compressed" type="Const" version="opset1">
			<data element_type="f16" shape="1, 1, 1, 1" offset="18768" size="2" />
			<output>
				<port id="0" precision="FP16">
					<dim>1</dim>
					<dim>1</dim>
					<dim>1</dim>
					<dim>1</dim>
				</port>
			</output>
		</layer>
		<layer id="55" name="Constant_12855" type="Convert" version="opset1">
			<data destination_type="f32" />
			<rt_info>
				<attribute name="decompression" version="0" />
			</rt_info>
			<input>
				<port id="0" precision="FP16">
					<dim>1</dim>
					<dim>1</dim>
					<dim>1</dim>
					<dim>1</dim>
				</port>
			</input>
			<output>
				<port id="1" precision="FP32">
					<dim>1</dim>
					<dim>1</dim>
					<dim>1</dim>
					<dim>1</dim>
				</port>
			</output>
		</layer>
		<layer id="56" name="node_add_6" type="Add" version="opset1">
			<data auto_broadcast="numpy" />
			<input>
				<port id="0" precision="FP32">
					<dim>-1</dim>
					<dim>8</dim>
					<dim>320</dim>
					<dim>320</dim>
				</port>
				<port id="1" precision="FP32">
					<dim>1</dim>
					<dim>1</dim>
					<dim>1</dim>
					<dim>1</dim>
				</port>
			</input>
			<output>
				<port id="2" precision="FP32" names="add_6">
					<dim>-1</dim>
					<dim>8</dim>
					<dim>320</dim>
					<dim>320</dim>
				</port>
			</output>
		</layer>
		<layer id="57" name="model.backbone.stem.stem2b.conv.weight_compressed" type="Const" version="opset1">
			<data element_type="f16" shape="16, 8, 2, 2" offset="18770" size="1024" />
			<output>
				<port id="0" precision="FP16" names="model.backbone.stem.stem2b.conv.weight">
					<dim>16</dim>
					<dim>8</dim>
					<dim>2</dim>
					<dim>2</dim>
				</port>
			</output>
		</layer>
		<layer id="58" name="model.backbone.stem.stem2b.conv.weight" type="Convert" version="opset1">
			<data destination_type="f32" />
			<rt_info>
				<attribute name="decompression" version="0" />
			</rt_info>
			<input>
				<port id="0" precision="FP16">
					<dim>16</dim>
					<dim>8</dim>
					<dim>2</dim>
					<dim>2</dim>
				</port>
			</input>
			<output>
				<port id="1" precision="FP32">
					<dim>16</dim>
					<dim>8</dim>
					<dim>2</dim>
					<dim>2</dim>
				</port>
			</output>
		</layer>
		<layer id="59" name="node_Conv_1532/WithoutBiases" type="Convolution" version="opset1">
			<data strides="1, 1" dilations="1, 1" pads_begin="0, 0" pads_end="1, 1" auto_pad="explicit" />
			<input>
				<port id="0" precision="FP32">
					<dim>-1</dim>
					<dim>8</dim>
					<dim>320</dim>
					<dim>320</dim>
				</port>
				<port id="1" precision="FP32">
					<dim>16</dim>
					<dim>8</dim>
					<dim>2</dim>
					<dim>2</dim>
				</port>
			</input>
			<output>
				<port id="2" precision="FP32">
					<dim>-1</dim>
					<dim>16</dim>
					<dim>320</dim>
					<dim>320</dim>
				</port>
			</output>
		</layer>
		<layer id="60" name="Reshape_62_compressed" type="Const" version="opset1">
			<data element_type="f16" shape="1, 16, 1, 1" offset="19794" size="32" />
			<output>
				<port id="0" precision="FP16">
					<dim>1</dim>
					<dim>16</dim>
					<dim>1</dim>
					<dim>1</dim>
				</port>
			</output>
		</layer>
		<layer id="61" name="Reshape_62" type="Convert" version="opset1">
			<data destination_type="f32" />
			<rt_info>
				<attribute name="decompression" version="0" />
			</rt_info>
			<input>
				<port id="0" precision="FP16">
					<dim>1</dim>
					<dim>16</dim>
					<dim>1</dim>
					<dim>1</dim>
				</port>
			</input>
			<output>
				<port id="1" precision="FP32">
					<dim>1</dim>
					<dim>16</dim>
					<dim>1</dim>
					<dim>1</dim>
				</port>
			</output>
		</layer>
		<layer id="62" name="node_Conv_1532" type="Add" version="opset1">
			<data auto_broadcast="numpy" />
			<input>
				<port id="0" precision="FP32">
					<dim>-1</dim>
					<dim>16</dim>
					<dim>320</dim>
					<dim>320</dim>
				</port>
				<port id="1" precision="FP32">
					<dim>1</dim>
					<dim>16</dim>
					<dim>1</dim>
					<dim>1</dim>
				</port>
			</input>
			<output>
				<port id="2" precision="FP32" names="getitem_6">
					<dim>-1</dim>
					<dim>16</dim>
					<dim>320</dim>
					<dim>320</dim>
				</port>
			</output>
		</layer>
		<layer id="63" name="node_relu_2" type="ReLU" version="opset1">
			<input>
				<port id="0" precision="FP32">
					<dim>-1</dim>
					<dim>16</dim>
					<dim>320</dim>
					<dim>320</dim>
				</port>
			</input>
			<output>
				<port id="1" precision="FP32" names="relu_2">
					<dim>-1</dim>
					<dim>16</dim>
					<dim>320</dim>
					<dim>320</dim>
				</port>
			</output>
		</layer>
		<layer id="64" name="node_mul_7" type="Multiply" version="opset1">
			<data auto_broadcast="numpy" />
			<input>
				<port id="0" precision="FP32">
					<dim>1</dim>
					<dim>1</dim>
					<dim>1</dim>
					<dim>1</dim>
				</port>
				<port id="1" precision="FP32">
					<dim>-1</dim>
					<dim>16</dim>
					<dim>320</dim>
					<dim>320</dim>
				</port>
			</input>
			<output>
				<port id="2" precision="FP32" names="mul_7">
					<dim>-1</dim>
					<dim>16</dim>
					<dim>320</dim>
					<dim>320</dim>
				</port>
			</output>
		</layer>
		<layer id="65" name="Constant_12857_compressed" type="Const" version="opset1">
			<data element_type="f16" shape="1, 1, 1, 1" offset="19826" size="2" />
			<output>
				<port id="0" precision="FP16">
					<dim>1</dim>
					<dim>1</dim>
					<dim>1</dim>
					<dim>1</dim>
				</port>
			</output>
		</layer>
		<layer id="66" name="Constant_12857" type="Convert" version="opset1">
			<data destination_type="f32" />
			<rt_info>
				<attribute name="decompression" version="0" />
			</rt_info>
			<input>
				<port id="0" precision="FP16">
					<dim>1</dim>
					<dim>1</dim>
					<dim>1</dim>
					<dim>1</dim>
				</port>
			</input>
			<output>
				<port id="1" precision="FP32">
					<dim>1</dim>
					<dim>1</dim>
					<dim>1</dim>
					<dim>1</dim>
				</port>
			</output>
		</layer>
		<layer id="67" name="node_add_7" type="Add" version="opset1">
			<data auto_broadcast="numpy" />
			<input>
				<port id="0" precision="FP32">
					<dim>-1</dim>
					<dim>16</dim>
					<dim>320</dim>
					<dim>320</dim>
				</port>
				<port id="1" precision="FP32">
					<dim>1</dim>
					<dim>1</dim>
					<dim>1</dim>
					<dim>1</dim>
				</port>
			</input>
			<output>
				<port id="2" precision="FP32" names="add_7">
					<dim>-1</dim>
					<dim>16</dim>
					<dim>320</dim>
					<dim>320</dim>
				</port>
			</output>
		</layer>
		<layer id="68" name="node_cat" type="Concat" version="opset1">
			<data axis="1" />
			<input>
				<port id="0" precision="FP32">
					<dim>-1</dim>
					<dim>16</dim>
					<dim>320</dim>
					<dim>320</dim>
				</port>
				<port id="1" precision="FP32">
					<dim>-1</dim>
					<dim>16</dim>
					<dim>320</dim>
					<dim>320</dim>
				</port>
			</input>
			<output>
				<port id="2" precision="FP32" names="cat">
					<dim>-1</dim>
					<dim>32</dim>
					<dim>320</dim>
					<dim>320</dim>
				</port>
			</output>
		</layer>
		<layer id="69" name="model.backbone.stem.stem3.conv.weight_compressed" type="Const" version="opset1">
			<data element_type="f16" shape="16, 32, 3, 3" offset="19828" size="9216" />
			<output>
				<port id="0" precision="FP16" names="model.backbone.stem.stem3.conv.weight">
					<dim>16</dim>
					<dim>32</dim>
					<dim>3</dim>
					<dim>3</dim>
				</port>
			</output>
		</layer>
		<layer id="70" name="model.backbone.stem.stem3.conv.weight" type="Convert" version="opset1">
			<data destination_type="f32" />
			<rt_info>
				<attribute name="decompression" version="0" />
			</rt_info>
			<input>
				<port id="0" precision="FP16">
					<dim>16</dim>
					<dim>32</dim>
					<dim>3</dim>
					<dim>3</dim>
				</port>
			</input>
			<output>
				<port id="1" precision="FP32">
					<dim>16</dim>
					<dim>32</dim>
					<dim>3</dim>
					<dim>3</dim>
				</port>
			</output>
		</layer>
		<layer id="71" name="node_Conv_1534/WithoutBiases" type="Convolution" version="opset1">
			<data strides="2, 2" dilations="1, 1" pads_begin="1, 1" pads_end="1, 1" auto_pad="explicit" />
			<input>
				<port id="0" precision="FP32">
					<dim>-1</dim>
					<dim>32</dim>
					<dim>320</dim>
					<dim>320</dim>
				</port>
				<port id="1" precision="FP32">
					<dim>16</dim>
					<dim>32</dim>
					<dim>3</dim>
					<dim>3</dim>
				</port>
			</input>
			<output>
				<port id="2" precision="FP32">
					<dim>-1</dim>
					<dim>16</dim>
					<dim>160</dim>
					<dim>160</dim>
				</port>
			</output>
		</layer>
		<layer id="72" name="Reshape_84_compressed" type="Const" version="opset1">
			<data element_type="f16" shape="1, 16, 1, 1" offset="29044" size="32" />
			<output>
				<port id="0" precision="FP16">
					<dim>1</dim>
					<dim>16</dim>
					<dim>1</dim>
					<dim>1</dim>
				</port>
			</output>
		</layer>
		<layer id="73" name="Reshape_84" type="Convert" version="opset1">
			<data destination_type="f32" />
			<rt_info>
				<attribute name="decompression" version="0" />
			</rt_info>
			<input>
				<port id="0" precision="FP16">
					<dim>1</dim>
					<dim>16</dim>
					<dim>1</dim>
					<dim>1</dim>
				</port>
			</input>
			<output>
				<port id="1" precision="FP32">
					<dim>1</dim>
					<dim>16</dim>
					<dim>1</dim>
					<dim>1</dim>
				</port>
			</output>
		</layer>
		<layer id="74" name="node_Conv_1534" type="Add" version="opset1">
			<data auto_broadcast="numpy" />
			<input>
				<port id="0" precision="FP32">
					<dim>-1</dim>
					<dim>16</dim>
					<dim>160</dim>
					<dim>160</dim>
				</port>
				<port id="1" precision="FP32">
					<dim>1</dim>
					<dim>16</dim>
					<dim>1</dim>
					<dim>1</dim>
				</port>
			</input>
			<output>
				<port id="2" precision="FP32" names="getitem_9">
					<dim>-1</dim>
					<dim>16</dim>
					<dim>160</dim>
					<dim>160</dim>
				</port>
			</output>
		</layer>
		<layer id="75" name="node_relu_3" type="ReLU" version="opset1">
			<input>
				<port id="0" precision="FP32">
					<dim>-1</dim>
					<dim>16</dim>
					<dim>160</dim>
					<dim>160</dim>
				</port>
			</input>
			<output>
				<port id="1" precision="FP32" names="relu_3">
					<dim>-1</dim>
					<dim>16</dim>
					<dim>160</dim>
					<dim>160</dim>
				</port>
			</output>
		</layer>
		<layer id="76" name="node_mul_8" type="Multiply" version="opset1">
			<data auto_broadcast="numpy" />
			<input>
				<port id="0" precision="FP32">
					<dim>1</dim>
					<dim>1</dim>
					<dim>1</dim>
					<dim>1</dim>
				</port>
				<port id="1" precision="FP32">
					<dim>-1</dim>
					<dim>16</dim>
					<dim>160</dim>
					<dim>160</dim>
				</port>
			</input>
			<output>
				<port id="2" precision="FP32" names="mul_8">
					<dim>-1</dim>
					<dim>16</dim>
					<dim>160</dim>
					<dim>160</dim>
				</port>
			</output>
		</layer>
		<layer id="77" name="Constant_12859_compressed" type="Const" version="opset1">
			<data element_type="f16" shape="1, 1, 1, 1" offset="29076" size="2" />
			<output>
				<port id="0" precision="FP16">
					<dim>1</dim>
					<dim>1</dim>
					<dim>1</dim>
					<dim>1</dim>
				</port>
			</output>
		</layer>
		<layer id="78" name="Constant_12859" type="Convert" version="opset1">
			<data destination_type="f32" />
			<rt_info>
				<attribute name="decompression" version="0" />
			</rt_info>
			<input>
				<port id="0" precision="FP16">
					<dim>1</dim>
					<dim>1</dim>
					<dim>1</dim>
					<dim>1</dim>
				</port>
			</input>
			<output>
				<port id="1" precision="FP32">
					<dim>1</dim>
					<dim>1</dim>
					<dim>1</dim>
					<dim>1</dim>
				</port>
			</output>
		</layer>
		<layer id="79" name="node_add_8" type="Add" version="opset1">
			<data auto_broadcast="numpy" />
			<input>
				<port id="0" precision="FP32">
					<dim>-1</dim>
					<dim>16</dim>
					<dim>160</dim>
					<dim>160</dim>
				</port>
				<port id="1" precision="FP32">
					<dim>1</dim>
					<dim>1</dim>
					<dim>1</dim>
					<dim>1</dim>
				</port>
			</input>
			<output>
				<port id="2" precision="FP32" names="add_8">
					<dim>-1</dim>
					<dim>16</dim>
					<dim>160</dim>
					<dim>160</dim>
				</port>
			</output>
		</layer>
		<layer id="80" name="model.backbone.stem.stem4.conv.weight_compressed" type="Const" version="opset1">
			<data element_type="f16" shape="16, 16, 1, 1" offset="29078" size="512" />
			<output>
				<port id="0" precision="FP16" names="model.backbone.stem.stem4.conv.weight">
					<dim>16</dim>
					<dim>16</dim>
					<dim>1</dim>
					<dim>1</dim>
				</port>
			</output>
		</layer>
		<layer id="81" name="model.backbone.stem.stem4.conv.weight" type="Convert" version="opset1">
			<data destination_type="f32" />
			<rt_info>
				<attribute name="decompression" version="0" />
			</rt_info>
			<input>
				<port id="0" precision="FP16">
					<dim>16</dim>
					<dim>16</dim>
					<dim>1</dim>
					<dim>1</dim>
				</port>
			</input>
			<output>
				<port id="1" precision="FP32">
					<dim>16</dim>
					<dim>16</dim>
					<dim>1</dim>
					<dim>1</dim>
				</port>
			</output>
		</layer>
		<layer id="82" name="node_Conv_1536/WithoutBiases" type="Convolution" version="opset1">
			<data strides="1, 1" dilations="1, 1" pads_begin="0, 0" pads_end="0, 0" auto_pad="explicit" />
			<input>
				<port id="0" precision="FP32">
					<dim>-1</dim>
					<dim>16</dim>
					<dim>160</dim>
					<dim>160</dim>
				</port>
				<port id="1" precision="FP32">
					<dim>16</dim>
					<dim>16</dim>
					<dim>1</dim>
					<dim>1</dim>
				</port>
			</input>
			<output>
				<port id="2" precision="FP32">
					<dim>-1</dim>
					<dim>16</dim>
					<dim>160</dim>
					<dim>160</dim>
				</port>
			</output>
		</layer>
		<layer id="83" name="Reshape_104_compressed" type="Const" version="opset1">
			<data element_type="f16" shape="1, 16, 1, 1" offset="29590" size="32" />
			<output>
				<port id="0" precision="FP16">
					<dim>1</dim>
					<dim>16</dim>
					<dim>1</dim>
					<dim>1</dim>
				</port>
			</output>
		</layer>
		<layer id="84" name="Reshape_104" type="Convert" version="opset1">
			<data destination_type="f32" />
			<rt_info>
				<attribute name="decompression" version="0" />
			</rt_info>
			<input>
				<port id="0" precision="FP16">
					<dim>1</dim>
					<dim>16</dim>
					<dim>1</dim>
					<dim>1</dim>
				</port>
			</input>
			<output>
				<port id="1" precision="FP32">
					<dim>1</dim>
					<dim>16</dim>
					<dim>1</dim>
					<dim>1</dim>
				</port>
			</output>
		</layer>
		<layer id="85" name="node_Conv_1536" type="Add" version="opset1">
			<data auto_broadcast="numpy" />
			<input>
				<port id="0" precision="FP32">
					<dim>-1</dim>
					<dim>16</dim>
					<dim>160</dim>
					<dim>160</dim>
				</port>
				<port id="1" precision="FP32">
					<dim>1</dim>
					<dim>16</dim>
					<dim>1</dim>
					<dim>1</dim>
				</port>
			</input>
			<output>
				<port id="2" precision="FP32" names="getitem_12">
					<dim>-1</dim>
					<dim>16</dim>
					<dim>160</dim>
					<dim>160</dim>
				</port>
			</output>
		</layer>
		<layer id="86" name="node_relu_4" type="ReLU" version="opset1">
			<input>
				<port id="0" precision="FP32">
					<dim>-1</dim>
					<dim>16</dim>
					<dim>160</dim>
					<dim>160</dim>
				</port>
			</input>
			<output>
				<port id="1" precision="FP32" names="relu_4">
					<dim>-1</dim>
					<dim>16</dim>
					<dim>160</dim>
					<dim>160</dim>
				</port>
			</output>
		</layer>
		<layer id="87" name="node_mul_9" type="Multiply" version="opset1">
			<data auto_broadcast="numpy" />
			<input>
				<port id="0" precision="FP32">
					<dim>1</dim>
					<dim>1</dim>
					<dim>1</dim>
					<dim>1</dim>
				</port>
				<port id="1" precision="FP32">
					<dim>-1</dim>
					<dim>16</dim>
					<dim>160</dim>
					<dim>160</dim>
				</port>
			</input>
			<output>
				<port id="2" precision="FP32" names="mul_9">
					<dim>-1</dim>
					<dim>16</dim>
					<dim>160</dim>
					<dim>160</dim>
				</port>
			</output>
		</layer>
		<layer id="88" name="Constant_12861_compressed" type="Const" version="opset1">
			<data element_type="f16" shape="1, 1, 1, 1" offset="29622" size="2" />
			<output>
				<port id="0" precision="FP16">
					<dim>1</dim>
					<dim>1</dim>
					<dim>1</dim>
					<dim>1</dim>
				</port>
			</output>
		</layer>
		<layer id="89" name="Constant_12861" type="Convert" version="opset1">
			<data destination_type="f32" />
			<rt_info>
				<attribute name="decompression" version="0" />
			</rt_info>
			<input>
				<port id="0" precision="FP16">
					<dim>1</dim>
					<dim>1</dim>
					<dim>1</dim>
					<dim>1</dim>
				</port>
			</input>
			<output>
				<port id="1" precision="FP32">
					<dim>1</dim>
					<dim>1</dim>
					<dim>1</dim>
					<dim>1</dim>
				</port>
			</output>
		</layer>
		<layer id="90" name="node_add_9" type="Add" version="opset1">
			<data auto_broadcast="numpy" />
			<input>
				<port id="0" precision="FP32">
					<dim>-1</dim>
					<dim>16</dim>
					<dim>160</dim>
					<dim>160</dim>
				</port>
				<port id="1" precision="FP32">
					<dim>1</dim>
					<dim>1</dim>
					<dim>1</dim>
					<dim>1</dim>
				</port>
			</input>
			<output>
				<port id="2" precision="FP32" names="add_9">
					<dim>-1</dim>
					<dim>16</dim>
					<dim>160</dim>
					<dim>160</dim>
				</port>
			</output>
		</layer>
		<layer id="91" name="Constant_12862_compressed" type="Const" version="opset1">
			<data element_type="f16" shape="1, 1, 1, 1" offset="29624" size="2" />
			<output>
				<port id="0" precision="FP16">
					<dim>1</dim>
					<dim>1</dim>
					<dim>1</dim>
					<dim>1</dim>
				</port>
			</output>
		</layer>
		<layer id="92" name="Constant_12862" type="Convert" version="opset1">
			<data destination_type="f32" />
			<rt_info>
				<attribute name="decompression" version="0" />
			</rt_info>
			<input>
				<port id="0" precision="FP16">
					<dim>1</dim>
					<dim>1</dim>
					<dim>1</dim>
					<dim>1</dim>
				</port>
			</input>
			<output>
				<port id="1" precision="FP32">
					<dim>1</dim>
					<dim>1</dim>
					<dim>1</dim>
					<dim>1</dim>
				</port>
			</output>
		</layer>
		<layer id="93" name="model.backbone.stages.0.blocks.0.layers.0.conv.weight_compressed" type="Const" version="opset1">
			<data element_type="f16" shape="16, 16, 3, 3" offset="29626" size="4608" />
			<output>
				<port id="0" precision="FP16" names="model.backbone.stages.0.blocks.0.layers.0.conv.weight">
					<dim>16</dim>
					<dim>16</dim>
					<dim>3</dim>
					<dim>3</dim>
				</port>
			</output>
		</layer>
		<layer id="94" name="model.backbone.stages.0.blocks.0.layers.0.conv.weight" type="Convert" version="opset1">
			<data destination_type="f32" />
			<rt_info>
				<attribute name="decompression" version="0" />
			</rt_info>
			<input>
				<port id="0" precision="FP16">
					<dim>16</dim>
					<dim>16</dim>
					<dim>3</dim>
					<dim>3</dim>
				</port>
			</input>
			<output>
				<port id="1" precision="FP32">
					<dim>16</dim>
					<dim>16</dim>
					<dim>3</dim>
					<dim>3</dim>
				</port>
			</output>
		</layer>
		<layer id="95" name="node_Conv_1538/WithoutBiases" type="Convolution" version="opset1">
			<data strides="1, 1" dilations="1, 1" pads_begin="1, 1" pads_end="1, 1" auto_pad="explicit" />
			<input>
				<port id="0" precision="FP32">
					<dim>-1</dim>
					<dim>16</dim>
					<dim>160</dim>
					<dim>160</dim>
				</port>
				<port id="1" precision="FP32">
					<dim>16</dim>
					<dim>16</dim>
					<dim>3</dim>
					<dim>3</dim>
				</port>
			</input>
			<output>
				<port id="2" precision="FP32">
					<dim>-1</dim>
					<dim>16</dim>
					<dim>160</dim>
					<dim>160</dim>
				</port>
			</output>
		</layer>
		<layer id="96" name="Reshape_124_compressed" type="Const" version="opset1">
			<data element_type="f16" shape="1, 16, 1, 1" offset="34234" size="32" />
			<output>
				<port id="0" precision="FP16">
					<dim>1</dim>
					<dim>16</dim>
					<dim>1</dim>
					<dim>1</dim>
				</port>
			</output>
		</layer>
		<layer id="97" name="Reshape_124" type="Convert" version="opset1">
			<data destination_type="f32" />
			<rt_info>
				<attribute name="decompression" version="0" />
			</rt_info>
			<input>
				<port id="0" precision="FP16">
					<dim>1</dim>
					<dim>16</dim>
					<dim>1</dim>
					<dim>1</dim>
				</port>
			</input>
			<output>
				<port id="1" precision="FP32">
					<dim>1</dim>
					<dim>16</dim>
					<dim>1</dim>
					<dim>1</dim>
				</port>
			</output>
		</layer>
		<layer id="98" name="node_Conv_1538" type="Add" version="opset1">
			<data auto_broadcast="numpy" />
			<input>
				<port id="0" precision="FP32">
					<dim>-1</dim>
					<dim>16</dim>
					<dim>160</dim>
					<dim>160</dim>
				</port>
				<port id="1" precision="FP32">
					<dim>1</dim>
					<dim>16</dim>
					<dim>1</dim>
					<dim>1</dim>
				</port>
			</input>
			<output>
				<port id="2" precision="FP32" names="getitem_15">
					<dim>-1</dim>
					<dim>16</dim>
					<dim>160</dim>
					<dim>160</dim>
				</port>
			</output>
		</layer>
		<layer id="99" name="node_relu_5" type="ReLU" version="opset1">
			<input>
				<port id="0" precision="FP32">
					<dim>-1</dim>
					<dim>16</dim>
					<dim>160</dim>
					<dim>160</dim>
				</port>
			</input>
			<output>
				<port id="1" precision="FP32" names="relu_5">
					<dim>-1</dim>
					<dim>16</dim>
					<dim>160</dim>
					<dim>160</dim>
				</port>
			</output>
		</layer>
		<layer id="100" name="node_mul_10" type="Multiply" version="opset1">
			<data auto_broadcast="numpy" />
			<input>
				<port id="0" precision="FP32">
					<dim>1</dim>
					<dim>1</dim>
					<dim>1</dim>
					<dim>1</dim>
				</port>
				<port id="1" precision="FP32">
					<dim>-1</dim>
					<dim>16</dim>
					<dim>160</dim>
					<dim>160</dim>
				</port>
			</input>
			<output>
				<port id="2" precision="FP32" names="mul_10">
					<dim>-1</dim>
					<dim>16</dim>
					<dim>160</dim>
					<dim>160</dim>
				</port>
			</output>
		</layer>
		<layer id="101" name="Constant_12863_compressed" type="Const" version="opset1">
			<data element_type="f16" shape="1, 1, 1, 1" offset="34266" size="2" />
			<output>
				<port id="0" precision="FP16">
					<dim>1</dim>
					<dim>1</dim>
					<dim>1</dim>
					<dim>1</dim>
				</port>
			</output>
		</layer>
		<layer id="102" name="Constant_12863" type="Convert" version="opset1">
			<data destination_type="f32" />
			<rt_info>
				<attribute name="decompression" version="0" />
			</rt_info>
			<input>
				<port id="0" precision="FP16">
					<dim>1</dim>
					<dim>1</dim>
					<dim>1</dim>
					<dim>1</dim>
				</port>
			</input>
			<output>
				<port id="1" precision="FP32">
					<dim>1</dim>
					<dim>1</dim>
					<dim>1</dim>
					<dim>1</dim>
				</port>
			</output>
		</layer>
		<layer id="103" name="node_add_10" type="Add" version="opset1">
			<data auto_broadcast="numpy" />
			<input>
				<port id="0" precision="FP32">
					<dim>-1</dim>
					<dim>16</dim>
					<dim>160</dim>
					<dim>160</dim>
				</port>
				<port id="1" precision="FP32">
					<dim>1</dim>
					<dim>1</dim>
					<dim>1</dim>
					<dim>1</dim>
				</port>
			</input>
			<output>
				<port id="2" precision="FP32" names="add_10">
					<dim>-1</dim>
					<dim>16</dim>
					<dim>160</dim>
					<dim>160</dim>
				</port>
			</output>
		</layer>
		<layer id="104" name="Constant_12864_compressed" type="Const" version="opset1">
			<data element_type="f16" shape="1, 1, 1, 1" offset="34268" size="2" />
			<output>
				<port id="0" precision="FP16">
					<dim>1</dim>
					<dim>1</dim>
					<dim>1</dim>
					<dim>1</dim>
				</port>
			</output>
		</layer>
		<layer id="105" name="Constant_12864" type="Convert" version="opset1">
			<data destination_type="f32" />
			<rt_info>
				<attribute name="decompression" version="0" />
			</rt_info>
			<input>
				<port id="0" precision="FP16">
					<dim>1</dim>
					<dim>1</dim>
					<dim>1</dim>
					<dim>1</dim>
				</port>
			</input>
			<output>
				<port id="1" precision="FP32">
					<dim>1</dim>
					<dim>1</dim>
					<dim>1</dim>
					<dim>1</dim>
				</port>
			</output>
		</layer>
		<layer id="106" name="model.backbone.stages.0.blocks.0.layers.1.conv.weight_compressed" type="Const" version="opset1">
			<data element_type="f16" shape="16, 16, 3, 3" offset="34270" size="4608" />
			<output>
				<port id="0" precision="FP16" names="model.backbone.stages.0.blocks.0.layers.1.conv.weight">
					<dim>16</dim>
					<dim>16</dim>
					<dim>3</dim>
					<dim>3</dim>
				</port>
			</output>
		</layer>
		<layer id="107" name="model.backbone.stages.0.blocks.0.layers.1.conv.weight" type="Convert" version="opset1">
			<data destination_type="f32" />
			<rt_info>
				<attribute name="decompression" version="0" />
			</rt_info>
			<input>
				<port id="0" precision="FP16">
					<dim>16</dim>
					<dim>16</dim>
					<dim>3</dim>
					<dim>3</dim>
				</port>
			</input>
			<output>
				<port id="1" precision="FP32">
					<dim>16</dim>
					<dim>16</dim>
					<dim>3</dim>
					<dim>3</dim>
				</port>
			</output>
		</layer>
		<layer id="108" name="node_Conv_1540/WithoutBiases" type="Convolution" version="opset1">
			<data strides="1, 1" dilations="1, 1" pads_begin="1, 1" pads_end="1, 1" auto_pad="explicit" />
			<input>
				<port id="0" precision="FP32">
					<dim>-1</dim>
					<dim>16</dim>
					<dim>160</dim>
					<dim>160</dim>
				</port>
				<port id="1" precision="FP32">
					<dim>16</dim>
					<dim>16</dim>
					<dim>3</dim>
					<dim>3</dim>
				</port>
			</input>
			<output>
				<port id="2" precision="FP32">
					<dim>-1</dim>
					<dim>16</dim>
					<dim>160</dim>
					<dim>160</dim>
				</port>
			</output>
		</layer>
		<layer id="109" name="Reshape_144_compressed" type="Const" version="opset1">
			<data element_type="f16" shape="1, 16, 1, 1" offset="38878" size="32" />
			<output>
				<port id="0" precision="FP16">
					<dim>1</dim>
					<dim>16</dim>
					<dim>1</dim>
					<dim>1</dim>
				</port>
			</output>
		</layer>
		<layer id="110" name="Reshape_144" type="Convert" version="opset1">
			<data destination_type="f32" />
			<rt_info>
				<attribute name="decompression" version="0" />
			</rt_info>
			<input>
				<port id="0" precision="FP16">
					<dim>1</dim>
					<dim>16</dim>
					<dim>1</dim>
					<dim>1</dim>
				</port>
			</input>
			<output>
				<port id="1" precision="FP32">
					<dim>1</dim>
					<dim>16</dim>
					<dim>1</dim>
					<dim>1</dim>
				</port>
			</output>
		</layer>
		<layer id="111" name="node_Conv_1540" type="Add" version="opset1">
			<data auto_broadcast="numpy" />
			<input>
				<port id="0" precision="FP32">
					<dim>-1</dim>
					<dim>16</dim>
					<dim>160</dim>
					<dim>160</dim>
				</port>
				<port id="1" precision="FP32">
					<dim>1</dim>
					<dim>16</dim>
					<dim>1</dim>
					<dim>1</dim>
				</port>
			</input>
			<output>
				<port id="2" precision="FP32" names="getitem_18">
					<dim>-1</dim>
					<dim>16</dim>
					<dim>160</dim>
					<dim>160</dim>
				</port>
			</output>
		</layer>
		<layer id="112" name="node_relu_6" type="ReLU" version="opset1">
			<input>
				<port id="0" precision="FP32">
					<dim>-1</dim>
					<dim>16</dim>
					<dim>160</dim>
					<dim>160</dim>
				</port>
			</input>
			<output>
				<port id="1" precision="FP32" names="relu_6">
					<dim>-1</dim>
					<dim>16</dim>
					<dim>160</dim>
					<dim>160</dim>
				</port>
			</output>
		</layer>
		<layer id="113" name="node_mul_11" type="Multiply" version="opset1">
			<data auto_broadcast="numpy" />
			<input>
				<port id="0" precision="FP32">
					<dim>1</dim>
					<dim>1</dim>
					<dim>1</dim>
					<dim>1</dim>
				</port>
				<port id="1" precision="FP32">
					<dim>-1</dim>
					<dim>16</dim>
					<dim>160</dim>
					<dim>160</dim>
				</port>
			</input>
			<output>
				<port id="2" precision="FP32" names="mul_11">
					<dim>-1</dim>
					<dim>16</dim>
					<dim>160</dim>
					<dim>160</dim>
				</port>
			</output>
		</layer>
		<layer id="114" name="Constant_12865_compressed" type="Const" version="opset1">
			<data element_type="f16" shape="1, 1, 1, 1" offset="38910" size="2" />
			<output>
				<port id="0" precision="FP16">
					<dim>1</dim>
					<dim>1</dim>
					<dim>1</dim>
					<dim>1</dim>
				</port>
			</output>
		</layer>
		<layer id="115" name="Constant_12865" type="Convert" version="opset1">
			<data destination_type="f32" />
			<rt_info>
				<attribute name="decompression" version="0" />
			</rt_info>
			<input>
				<port id="0" precision="FP16">
					<dim>1</dim>
					<dim>1</dim>
					<dim>1</dim>
					<dim>1</dim>
				</port>
			</input>
			<output>
				<port id="1" precision="FP32">
					<dim>1</dim>
					<dim>1</dim>
					<dim>1</dim>
					<dim>1</dim>
				</port>
			</output>
		</layer>
		<layer id="116" name="node_add_11" type="Add" version="opset1">
			<data auto_broadcast="numpy" />
			<input>
				<port id="0" precision="FP32">
					<dim>-1</dim>
					<dim>16</dim>
					<dim>160</dim>
					<dim>160</dim>
				</port>
				<port id="1" precision="FP32">
					<dim>1</dim>
					<dim>1</dim>
					<dim>1</dim>
					<dim>1</dim>
				</port>
			</input>
			<output>
				<port id="2" precision="FP32" names="add_11">
					<dim>-1</dim>
					<dim>16</dim>
					<dim>160</dim>
					<dim>160</dim>
				</port>
			</output>
		</layer>
		<layer id="117" name="Constant_12866_compressed" type="Const" version="opset1">
			<data element_type="f16" shape="1, 1, 1, 1" offset="38912" size="2" />
			<output>
				<port id="0" precision="FP16">
					<dim>1</dim>
					<dim>1</dim>
					<dim>1</dim>
					<dim>1</dim>
				</port>
			</output>
		</layer>
		<layer id="118" name="Constant_12866" type="Convert" version="opset1">
			<data destination_type="f32" />
			<rt_info>
				<attribute name="decompression" version="0" />
			</rt_info>
			<input>
				<port id="0" precision="FP16">
					<dim>1</dim>
					<dim>1</dim>
					<dim>1</dim>
					<dim>1</dim>
				</port>
			</input>
			<output>
				<port id="1" precision="FP32">
					<dim>1</dim>
					<dim>1</dim>
					<dim>1</dim>
					<dim>1</dim>
				</port>
			</output>
		</layer>
		<layer id="119" name="model.backbone.stages.0.blocks.0.layers.2.conv.weight_compressed" type="Const" version="opset1">
			<data element_type="f16" shape="16, 16, 3, 3" offset="38914" size="4608" />
			<output>
				<port id="0" precision="FP16" names="model.backbone.stages.0.blocks.0.layers.2.conv.weight">
					<dim>16</dim>
					<dim>16</dim>
					<dim>3</dim>
					<dim>3</dim>
				</port>
			</output>
		</layer>
		<layer id="120" name="model.backbone.stages.0.blocks.0.layers.2.conv.weight" type="Convert" version="opset1">
			<data destination_type="f32" />
			<rt_info>
				<attribute name="decompression" version="0" />
			</rt_info>
			<input>
				<port id="0" precision="FP16">
					<dim>16</dim>
					<dim>16</dim>
					<dim>3</dim>
					<dim>3</dim>
				</port>
			</input>
			<output>
				<port id="1" precision="FP32">
					<dim>16</dim>
					<dim>16</dim>
					<dim>3</dim>
					<dim>3</dim>
				</port>
			</output>
		</layer>
		<layer id="121" name="node_Conv_1542/WithoutBiases" type="Convolution" version="opset1">
			<data strides="1, 1" dilations="1, 1" pads_begin="1, 1" pads_end="1, 1" auto_pad="explicit" />
			<input>
				<port id="0" precision="FP32">
					<dim>-1</dim>
					<dim>16</dim>
					<dim>160</dim>
					<dim>160</dim>
				</port>
				<port id="1" precision="FP32">
					<dim>16</dim>
					<dim>16</dim>
					<dim>3</dim>
					<dim>3</dim>
				</port>
			</input>
			<output>
				<port id="2" precision="FP32">
					<dim>-1</dim>
					<dim>16</dim>
					<dim>160</dim>
					<dim>160</dim>
				</port>
			</output>
		</layer>
		<layer id="122" name="Reshape_164_compressed" type="Const" version="opset1">
			<data element_type="f16" shape="1, 16, 1, 1" offset="43522" size="32" />
			<output>
				<port id="0" precision="FP16">
					<dim>1</dim>
					<dim>16</dim>
					<dim>1</dim>
					<dim>1</dim>
				</port>
			</output>
		</layer>
		<layer id="123" name="Reshape_164" type="Convert" version="opset1">
			<data destination_type="f32" />
			<rt_info>
				<attribute name="decompression" version="0" />
			</rt_info>
			<input>
				<port id="0" precision="FP16">
					<dim>1</dim>
					<dim>16</dim>
					<dim>1</dim>
					<dim>1</dim>
				</port>
			</input>
			<output>
				<port id="1" precision="FP32">
					<dim>1</dim>
					<dim>16</dim>
					<dim>1</dim>
					<dim>1</dim>
				</port>
			</output>
		</layer>
		<layer id="124" name="node_Conv_1542" type="Add" version="opset1">
			<data auto_broadcast="numpy" />
			<input>
				<port id="0" precision="FP32">
					<dim>-1</dim>
					<dim>16</dim>
					<dim>160</dim>
					<dim>160</dim>
				</port>
				<port id="1" precision="FP32">
					<dim>1</dim>
					<dim>16</dim>
					<dim>1</dim>
					<dim>1</dim>
				</port>
			</input>
			<output>
				<port id="2" precision="FP32" names="getitem_21">
					<dim>-1</dim>
					<dim>16</dim>
					<dim>160</dim>
					<dim>160</dim>
				</port>
			</output>
		</layer>
		<layer id="125" name="node_relu_7" type="ReLU" version="opset1">
			<input>
				<port id="0" precision="FP32">
					<dim>-1</dim>
					<dim>16</dim>
					<dim>160</dim>
					<dim>160</dim>
				</port>
			</input>
			<output>
				<port id="1" precision="FP32" names="relu_7">
					<dim>-1</dim>
					<dim>16</dim>
					<dim>160</dim>
					<dim>160</dim>
				</port>
			</output>
		</layer>
		<layer id="126" name="node_mul_12" type="Multiply" version="opset1">
			<data auto_broadcast="numpy" />
			<input>
				<port id="0" precision="FP32">
					<dim>1</dim>
					<dim>1</dim>
					<dim>1</dim>
					<dim>1</dim>
				</port>
				<port id="1" precision="FP32">
					<dim>-1</dim>
					<dim>16</dim>
					<dim>160</dim>
					<dim>160</dim>
				</port>
			</input>
			<output>
				<port id="2" precision="FP32" names="mul_12">
					<dim>-1</dim>
					<dim>16</dim>
					<dim>160</dim>
					<dim>160</dim>
				</port>
			</output>
		</layer>
		<layer id="127" name="Constant_12867_compressed" type="Const" version="opset1">
			<data element_type="f16" shape="1, 1, 1, 1" offset="43554" size="2" />
			<output>
				<port id="0" precision="FP16">
					<dim>1</dim>
					<dim>1</dim>
					<dim>1</dim>
					<dim>1</dim>
				</port>
			</output>
		</layer>
		<layer id="128" name="Constant_12867" type="Convert" version="opset1">
			<data destination_type="f32" />
			<rt_info>
				<attribute name="decompression" version="0" />
			</rt_info>
			<input>
				<port id="0" precision="FP16">
					<dim>1</dim>
					<dim>1</dim>
					<dim>1</dim>
					<dim>1</dim>
				</port>
			</input>
			<output>
				<port id="1" precision="FP32">
					<dim>1</dim>
					<dim>1</dim>
					<dim>1</dim>
					<dim>1</dim>
				</port>
			</output>
		</layer>
		<layer id="129" name="node_add_12" type="Add" version="opset1">
			<data auto_broadcast="numpy" />
			<input>
				<port id="0" precision="FP32">
					<dim>-1</dim>
					<dim>16</dim>
					<dim>160</dim>
					<dim>160</dim>
				</port>
				<port id="1" precision="FP32">
					<dim>1</dim>
					<dim>1</dim>
					<dim>1</dim>
					<dim>1</dim>
				</port>
			</input>
			<output>
				<port id="2" precision="FP32" names="add_12">
					<dim>-1</dim>
					<dim>16</dim>
					<dim>160</dim>
					<dim>160</dim>
				</port>
			</output>
		</layer>
		<layer id="130" name="node_cat_1" type="Concat" version="opset1">
			<data axis="1" />
			<input>
				<port id="0" precision="FP32">
					<dim>-1</dim>
					<dim>16</dim>
					<dim>160</dim>
					<dim>160</dim>
				</port>
				<port id="1" precision="FP32">
					<dim>-1</dim>
					<dim>16</dim>
					<dim>160</dim>
					<dim>160</dim>
				</port>
				<port id="2" precision="FP32">
					<dim>-1</dim>
					<dim>16</dim>
					<dim>160</dim>
					<dim>160</dim>
				</port>
				<port id="3" precision="FP32">
					<dim>-1</dim>
					<dim>16</dim>
					<dim>160</dim>
					<dim>160</dim>
				</port>
			</input>
			<output>
				<port id="4" precision="FP32" names="cat_1">
					<dim>-1</dim>
					<dim>64</dim>
					<dim>160</dim>
					<dim>160</dim>
				</port>
			</output>
		</layer>
		<layer id="131" name="model.backbone.stages.0.blocks.0.aggregation.0.conv.weight_compressed" type="Const" version="opset1">
			<data element_type="f16" shape="32, 64, 1, 1" offset="43556" size="4096" />
			<output>
				<port id="0" precision="FP16" names="model.backbone.stages.0.blocks.0.aggregation.0.conv.weight">
					<dim>32</dim>
					<dim>64</dim>
					<dim>1</dim>
					<dim>1</dim>
				</port>
			</output>
		</layer>
		<layer id="132" name="model.backbone.stages.0.blocks.0.aggregation.0.conv.weight" type="Convert" version="opset1">
			<data destination_type="f32" />
			<rt_info>
				<attribute name="decompression" version="0" />
			</rt_info>
			<input>
				<port id="0" precision="FP16">
					<dim>32</dim>
					<dim>64</dim>
					<dim>1</dim>
					<dim>1</dim>
				</port>
			</input>
			<output>
				<port id="1" precision="FP32">
					<dim>32</dim>
					<dim>64</dim>
					<dim>1</dim>
					<dim>1</dim>
				</port>
			</output>
		</layer>
		<layer id="133" name="node_Conv_1544/WithoutBiases" type="Convolution" version="opset1">
			<data strides="1, 1" dilations="1, 1" pads_begin="0, 0" pads_end="0, 0" auto_pad="explicit" />
			<input>
				<port id="0" precision="FP32">
					<dim>-1</dim>
					<dim>64</dim>
					<dim>160</dim>
					<dim>160</dim>
				</port>
				<port id="1" precision="FP32">
					<dim>32</dim>
					<dim>64</dim>
					<dim>1</dim>
					<dim>1</dim>
				</port>
			</input>
			<output>
				<port id="2" precision="FP32">
					<dim>-1</dim>
					<dim>32</dim>
					<dim>160</dim>
					<dim>160</dim>
				</port>
			</output>
		</layer>
		<layer id="134" name="Reshape_185_compressed" type="Const" version="opset1">
			<data element_type="f16" shape="1, 32, 1, 1" offset="47652" size="64" />
			<output>
				<port id="0" precision="FP16">
					<dim>1</dim>
					<dim>32</dim>
					<dim>1</dim>
					<dim>1</dim>
				</port>
			</output>
		</layer>
		<layer id="135" name="Reshape_185" type="Convert" version="opset1">
			<data destination_type="f32" />
			<rt_info>
				<attribute name="decompression" version="0" />
			</rt_info>
			<input>
				<port id="0" precision="FP16">
					<dim>1</dim>
					<dim>32</dim>
					<dim>1</dim>
					<dim>1</dim>
				</port>
			</input>
			<output>
				<port id="1" precision="FP32">
					<dim>1</dim>
					<dim>32</dim>
					<dim>1</dim>
					<dim>1</dim>
				</port>
			</output>
		</layer>
		<layer id="136" name="node_Conv_1544" type="Add" version="opset1">
			<data auto_broadcast="numpy" />
			<input>
				<port id="0" precision="FP32">
					<dim>-1</dim>
					<dim>32</dim>
					<dim>160</dim>
					<dim>160</dim>
				</port>
				<port id="1" precision="FP32">
					<dim>1</dim>
					<dim>32</dim>
					<dim>1</dim>
					<dim>1</dim>
				</port>
			</input>
			<output>
				<port id="2" precision="FP32" names="getitem_24">
					<dim>-1</dim>
					<dim>32</dim>
					<dim>160</dim>
					<dim>160</dim>
				</port>
			</output>
		</layer>
		<layer id="137" name="node_relu_8" type="ReLU" version="opset1">
			<input>
				<port id="0" precision="FP32">
					<dim>-1</dim>
					<dim>32</dim>
					<dim>160</dim>
					<dim>160</dim>
				</port>
			</input>
			<output>
				<port id="1" precision="FP32" names="relu_8">
					<dim>-1</dim>
					<dim>32</dim>
					<dim>160</dim>
					<dim>160</dim>
				</port>
			</output>
		</layer>
		<layer id="138" name="node_mul_13" type="Multiply" version="opset1">
			<data auto_broadcast="numpy" />
			<input>
				<port id="0" precision="FP32">
					<dim>1</dim>
					<dim>1</dim>
					<dim>1</dim>
					<dim>1</dim>
				</port>
				<port id="1" precision="FP32">
					<dim>-1</dim>
					<dim>32</dim>
					<dim>160</dim>
					<dim>160</dim>
				</port>
			</input>
			<output>
				<port id="2" precision="FP32" names="mul_13">
					<dim>-1</dim>
					<dim>32</dim>
					<dim>160</dim>
					<dim>160</dim>
				</port>
			</output>
		</layer>
		<layer id="139" name="Constant_12869_compressed" type="Const" version="opset1">
			<data element_type="f16" shape="1, 1, 1, 1" offset="47716" size="2" />
			<output>
				<port id="0" precision="FP16">
					<dim>1</dim>
					<dim>1</dim>
					<dim>1</dim>
					<dim>1</dim>
				</port>
			</output>
		</layer>
		<layer id="140" name="Constant_12869" type="Convert" version="opset1">
			<data destination_type="f32" />
			<rt_info>
				<attribute name="decompression" version="0" />
			</rt_info>
			<input>
				<port id="0" precision="FP16">
					<dim>1</dim>
					<dim>1</dim>
					<dim>1</dim>
					<dim>1</dim>
				</port>
			</input>
			<output>
				<port id="1" precision="FP32">
					<dim>1</dim>
					<dim>1</dim>
					<dim>1</dim>
					<dim>1</dim>
				</port>
			</output>
		</layer>
		<layer id="141" name="node_add_13" type="Add" version="opset1">
			<data auto_broadcast="numpy" />
			<input>
				<port id="0" precision="FP32">
					<dim>-1</dim>
					<dim>32</dim>
					<dim>160</dim>
					<dim>160</dim>
				</port>
				<port id="1" precision="FP32">
					<dim>1</dim>
					<dim>1</dim>
					<dim>1</dim>
					<dim>1</dim>
				</port>
			</input>
			<output>
				<port id="2" precision="FP32" names="add_13">
					<dim>-1</dim>
					<dim>32</dim>
					<dim>160</dim>
					<dim>160</dim>
				</port>
			</output>
		</layer>
		<layer id="142" name="model.backbone.stages.0.blocks.0.aggregation.1.conv.weight_compressed" type="Const" version="opset1">
			<data element_type="f16" shape="64, 32, 1, 1" offset="47718" size="4096" />
			<output>
				<port id="0" precision="FP16" names="model.backbone.stages.0.blocks.0.aggregation.1.conv.weight">
					<dim>64</dim>
					<dim>32</dim>
					<dim>1</dim>
					<dim>1</dim>
				</port>
			</output>
		</layer>
		<layer id="143" name="model.backbone.stages.0.blocks.0.aggregation.1.conv.weight" type="Convert" version="opset1">
			<data destination_type="f32" />
			<rt_info>
				<attribute name="decompression" version="0" />
			</rt_info>
			<input>
				<port id="0" precision="FP16">
					<dim>64</dim>
					<dim>32</dim>
					<dim>1</dim>
					<dim>1</dim>
				</port>
			</input>
			<output>
				<port id="1" precision="FP32">
					<dim>64</dim>
					<dim>32</dim>
					<dim>1</dim>
					<dim>1</dim>
				</port>
			</output>
		</layer>
		<layer id="144" name="node_Conv_1546/WithoutBiases" type="Convolution" version="opset1">
			<data strides="1, 1" dilations="1, 1" pads_begin="0, 0" pads_end="0, 0" auto_pad="explicit" />
			<input>
				<port id="0" precision="FP32">
					<dim>-1</dim>
					<dim>32</dim>
					<dim>160</dim>
					<dim>160</dim>
				</port>
				<port id="1" precision="FP32">
					<dim>64</dim>
					<dim>32</dim>
					<dim>1</dim>
					<dim>1</dim>
				</port>
			</input>
			<output>
				<port id="2" precision="FP32">
					<dim>-1</dim>
					<dim>64</dim>
					<dim>160</dim>
					<dim>160</dim>
				</port>
			</output>
		</layer>
		<layer id="145" name="Reshape_205_compressed" type="Const" version="opset1">
			<data element_type="f16" shape="1, 64, 1, 1" offset="51814" size="128" />
			<output>
				<port id="0" precision="FP16">
					<dim>1</dim>
					<dim>64</dim>
					<dim>1</dim>
					<dim>1</dim>
				</port>
			</output>
		</layer>
		<layer id="146" name="Reshape_205" type="Convert" version="opset1">
			<data destination_type="f32" />
			<rt_info>
				<attribute name="decompression" version="0" />
			</rt_info>
			<input>
				<port id="0" precision="FP16">
					<dim>1</dim>
					<dim>64</dim>
					<dim>1</dim>
					<dim>1</dim>
				</port>
			</input>
			<output>
				<port id="1" precision="FP32">
					<dim>1</dim>
					<dim>64</dim>
					<dim>1</dim>
					<dim>1</dim>
				</port>
			</output>
		</layer>
		<layer id="147" name="node_Conv_1546" type="Add" version="opset1">
			<data auto_broadcast="numpy" />
			<input>
				<port id="0" precision="FP32">
					<dim>-1</dim>
					<dim>64</dim>
					<dim>160</dim>
					<dim>160</dim>
				</port>
				<port id="1" precision="FP32">
					<dim>1</dim>
					<dim>64</dim>
					<dim>1</dim>
					<dim>1</dim>
				</port>
			</input>
			<output>
				<port id="2" precision="FP32" names="getitem_27">
					<dim>-1</dim>
					<dim>64</dim>
					<dim>160</dim>
					<dim>160</dim>
				</port>
			</output>
		</layer>
		<layer id="148" name="node_relu_9" type="ReLU" version="opset1">
			<input>
				<port id="0" precision="FP32">
					<dim>-1</dim>
					<dim>64</dim>
					<dim>160</dim>
					<dim>160</dim>
				</port>
			</input>
			<output>
				<port id="1" precision="FP32" names="relu_9">
					<dim>-1</dim>
					<dim>64</dim>
					<dim>160</dim>
					<dim>160</dim>
				</port>
			</output>
		</layer>
		<layer id="149" name="node_mul_14" type="Multiply" version="opset1">
			<data auto_broadcast="numpy" />
			<input>
				<port id="0" precision="FP32">
					<dim>1</dim>
					<dim>1</dim>
					<dim>1</dim>
					<dim>1</dim>
				</port>
				<port id="1" precision="FP32">
					<dim>-1</dim>
					<dim>64</dim>
					<dim>160</dim>
					<dim>160</dim>
				</port>
			</input>
			<output>
				<port id="2" precision="FP32" names="mul_14">
					<dim>-1</dim>
					<dim>64</dim>
					<dim>160</dim>
					<dim>160</dim>
				</port>
			</output>
		</layer>
		<layer id="150" name="Constant_12871_compressed" type="Const" version="opset1">
			<data element_type="f16" shape="1, 1, 1, 1" offset="51942" size="2" />
			<output>
				<port id="0" precision="FP16">
					<dim>1</dim>
					<dim>1</dim>
					<dim>1</dim>
					<dim>1</dim>
				</port>
			</output>
		</layer>
		<layer id="151" name="Constant_12871" type="Convert" version="opset1">
			<data destination_type="f32" />
			<rt_info>
				<attribute name="decompression" version="0" />
			</rt_info>
			<input>
				<port id="0" precision="FP16">
					<dim>1</dim>
					<dim>1</dim>
					<dim>1</dim>
					<dim>1</dim>
				</port>
			</input>
			<output>
				<port id="1" precision="FP32">
					<dim>1</dim>
					<dim>1</dim>
					<dim>1</dim>
					<dim>1</dim>
				</port>
			</output>
		</layer>
		<layer id="152" name="node_add_14" type="Add" version="opset1">
			<data auto_broadcast="numpy" />
			<input>
				<port id="0" precision="FP32">
					<dim>-1</dim>
					<dim>64</dim>
					<dim>160</dim>
					<dim>160</dim>
				</port>
				<port id="1" precision="FP32">
					<dim>1</dim>
					<dim>1</dim>
					<dim>1</dim>
					<dim>1</dim>
				</port>
			</input>
			<output>
				<port id="2" precision="FP32" names="add_14">
					<dim>-1</dim>
					<dim>64</dim>
					<dim>160</dim>
					<dim>160</dim>
				</port>
			</output>
		</layer>
		<layer id="153" name="Reshape_221_compressed" type="Const" version="opset1">
			<data element_type="f16" shape="64, 1, 1, 3, 3" offset="51944" size="1152" />
			<output>
				<port id="0" precision="FP16">
					<dim>64</dim>
					<dim>1</dim>
					<dim>1</dim>
					<dim>3</dim>
					<dim>3</dim>
				</port>
			</output>
		</layer>
		<layer id="154" name="Reshape_221" type="Convert" version="opset1">
			<data destination_type="f32" />
			<rt_info>
				<attribute name="decompression" version="0" />
			</rt_info>
			<input>
				<port id="0" precision="FP16">
					<dim>64</dim>
					<dim>1</dim>
					<dim>1</dim>
					<dim>3</dim>
					<dim>3</dim>
				</port>
			</input>
			<output>
				<port id="1" precision="FP32">
					<dim>64</dim>
					<dim>1</dim>
					<dim>1</dim>
					<dim>3</dim>
					<dim>3</dim>
				</port>
			</output>
		</layer>
		<layer id="155" name="node_Conv_1548/WithoutBiases" type="GroupConvolution" version="opset1">
			<data strides="2, 2" pads_begin="1, 1" pads_end="1, 1" dilations="1, 1" auto_pad="explicit" />
			<input>
				<port id="0" precision="FP32">
					<dim>-1</dim>
					<dim>64</dim>
					<dim>160</dim>
					<dim>160</dim>
				</port>
				<port id="1" precision="FP32">
					<dim>64</dim>
					<dim>1</dim>
					<dim>1</dim>
					<dim>3</dim>
					<dim>3</dim>
				</port>
			</input>
			<output>
				<port id="2" precision="FP32">
					<dim>-1</dim>
					<dim>64</dim>
					<dim>80</dim>
					<dim>80</dim>
				</port>
			</output>
		</layer>
		<layer id="156" name="Reshape_271_compressed" type="Const" version="opset1">
			<data element_type="f16" shape="1, 64, 1, 1" offset="53096" size="128" />
			<output>
				<port id="0" precision="FP16">
					<dim>1</dim>
					<dim>64</dim>
					<dim>1</dim>
					<dim>1</dim>
				</port>
			</output>
		</layer>
		<layer id="157" name="Reshape_271" type="Convert" version="opset1">
			<data destination_type="f32" />
			<rt_info>
				<attribute name="decompression" version="0" />
			</rt_info>
			<input>
				<port id="0" precision="FP16">
					<dim>1</dim>
					<dim>64</dim>
					<dim>1</dim>
					<dim>1</dim>
				</port>
			</input>
			<output>
				<port id="1" precision="FP32">
					<dim>1</dim>
					<dim>64</dim>
					<dim>1</dim>
					<dim>1</dim>
				</port>
			</output>
		</layer>
		<layer id="158" name="node_Conv_1548" type="Add" version="opset1">
			<data auto_broadcast="numpy" />
			<input>
				<port id="0" precision="FP32">
					<dim>-1</dim>
					<dim>64</dim>
					<dim>80</dim>
					<dim>80</dim>
				</port>
				<port id="1" precision="FP32">
					<dim>1</dim>
					<dim>64</dim>
					<dim>1</dim>
					<dim>1</dim>
				</port>
			</input>
			<output>
				<port id="2" precision="FP32" names="getitem_30">
					<dim>-1</dim>
					<dim>64</dim>
					<dim>80</dim>
					<dim>80</dim>
				</port>
			</output>
		</layer>
		<layer id="159" name="Constant_12872_compressed" type="Const" version="opset1">
			<data element_type="f16" shape="1, 1, 1, 1" offset="53224" size="2" />
			<output>
				<port id="0" precision="FP16">
					<dim>1</dim>
					<dim>1</dim>
					<dim>1</dim>
					<dim>1</dim>
				</port>
			</output>
		</layer>
		<layer id="160" name="Constant_12872" type="Convert" version="opset1">
			<data destination_type="f32" />
			<rt_info>
				<attribute name="decompression" version="0" />
			</rt_info>
			<input>
				<port id="0" precision="FP16">
					<dim>1</dim>
					<dim>1</dim>
					<dim>1</dim>
					<dim>1</dim>
				</port>
			</input>
			<output>
				<port id="1" precision="FP32">
					<dim>1</dim>
					<dim>1</dim>
					<dim>1</dim>
					<dim>1</dim>
				</port>
			</output>
		</layer>
		<layer id="161" name="model.backbone.stages.1.blocks.0.layers.0.conv.weight_compressed" type="Const" version="opset1">
			<data element_type="f16" shape="32, 64, 3, 3" offset="53226" size="36864" />
			<output>
				<port id="0" precision="FP16" names="model.backbone.stages.1.blocks.0.layers.0.conv.weight">
					<dim>32</dim>
					<dim>64</dim>
					<dim>3</dim>
					<dim>3</dim>
				</port>
			</output>
		</layer>
		<layer id="162" name="model.backbone.stages.1.blocks.0.layers.0.conv.weight" type="Convert" version="opset1">
			<data destination_type="f32" />
			<rt_info>
				<attribute name="decompression" version="0" />
			</rt_info>
			<input>
				<port id="0" precision="FP16">
					<dim>32</dim>
					<dim>64</dim>
					<dim>3</dim>
					<dim>3</dim>
				</port>
			</input>
			<output>
				<port id="1" precision="FP32">
					<dim>32</dim>
					<dim>64</dim>
					<dim>3</dim>
					<dim>3</dim>
				</port>
			</output>
		</layer>
		<layer id="163" name="node_Conv_1550/WithoutBiases" type="Convolution" version="opset1">
			<data strides="1, 1" dilations="1, 1" pads_begin="1, 1" pads_end="1, 1" auto_pad="explicit" />
			<input>
				<port id="0" precision="FP32">
					<dim>-1</dim>
					<dim>64</dim>
					<dim>80</dim>
					<dim>80</dim>
				</port>
				<port id="1" precision="FP32">
					<dim>32</dim>
					<dim>64</dim>
					<dim>3</dim>
					<dim>3</dim>
				</port>
			</input>
			<output>
				<port id="2" precision="FP32">
					<dim>-1</dim>
					<dim>32</dim>
					<dim>80</dim>
					<dim>80</dim>
				</port>
			</output>
		</layer>
		<layer id="164" name="Reshape_286_compressed" type="Const" version="opset1">
			<data element_type="f16" shape="1, 32, 1, 1" offset="90090" size="64" />
			<output>
				<port id="0" precision="FP16">
					<dim>1</dim>
					<dim>32</dim>
					<dim>1</dim>
					<dim>1</dim>
				</port>
			</output>
		</layer>
		<layer id="165" name="Reshape_286" type="Convert" version="opset1">
			<data destination_type="f32" />
			<rt_info>
				<attribute name="decompression" version="0" />
			</rt_info>
			<input>
				<port id="0" precision="FP16">
					<dim>1</dim>
					<dim>32</dim>
					<dim>1</dim>
					<dim>1</dim>
				</port>
			</input>
			<output>
				<port id="1" precision="FP32">
					<dim>1</dim>
					<dim>32</dim>
					<dim>1</dim>
					<dim>1</dim>
				</port>
			</output>
		</layer>
		<layer id="166" name="node_Conv_1550" type="Add" version="opset1">
			<data auto_broadcast="numpy" />
			<input>
				<port id="0" precision="FP32">
					<dim>-1</dim>
					<dim>32</dim>
					<dim>80</dim>
					<dim>80</dim>
				</port>
				<port id="1" precision="FP32">
					<dim>1</dim>
					<dim>32</dim>
					<dim>1</dim>
					<dim>1</dim>
				</port>
			</input>
			<output>
				<port id="2" precision="FP32" names="getitem_33">
					<dim>-1</dim>
					<dim>32</dim>
					<dim>80</dim>
					<dim>80</dim>
				</port>
			</output>
		</layer>
		<layer id="167" name="node_relu_10" type="ReLU" version="opset1">
			<input>
				<port id="0" precision="FP32">
					<dim>-1</dim>
					<dim>32</dim>
					<dim>80</dim>
					<dim>80</dim>
				</port>
			</input>
			<output>
				<port id="1" precision="FP32" names="relu_10">
					<dim>-1</dim>
					<dim>32</dim>
					<dim>80</dim>
					<dim>80</dim>
				</port>
			</output>
		</layer>
		<layer id="168" name="node_mul_15" type="Multiply" version="opset1">
			<data auto_broadcast="numpy" />
			<input>
				<port id="0" precision="FP32">
					<dim>1</dim>
					<dim>1</dim>
					<dim>1</dim>
					<dim>1</dim>
				</port>
				<port id="1" precision="FP32">
					<dim>-1</dim>
					<dim>32</dim>
					<dim>80</dim>
					<dim>80</dim>
				</port>
			</input>
			<output>
				<port id="2" precision="FP32" names="mul_15">
					<dim>-1</dim>
					<dim>32</dim>
					<dim>80</dim>
					<dim>80</dim>
				</port>
			</output>
		</layer>
		<layer id="169" name="Constant_12873_compressed" type="Const" version="opset1">
			<data element_type="f16" shape="1, 1, 1, 1" offset="90154" size="2" />
			<output>
				<port id="0" precision="FP16">
					<dim>1</dim>
					<dim>1</dim>
					<dim>1</dim>
					<dim>1</dim>
				</port>
			</output>
		</layer>
		<layer id="170" name="Constant_12873" type="Convert" version="opset1">
			<data destination_type="f32" />
			<rt_info>
				<attribute name="decompression" version="0" />
			</rt_info>
			<input>
				<port id="0" precision="FP16">
					<dim>1</dim>
					<dim>1</dim>
					<dim>1</dim>
					<dim>1</dim>
				</port>
			</input>
			<output>
				<port id="1" precision="FP32">
					<dim>1</dim>
					<dim>1</dim>
					<dim>1</dim>
					<dim>1</dim>
				</port>
			</output>
		</layer>
		<layer id="171" name="node_add_15" type="Add" version="opset1">
			<data auto_broadcast="numpy" />
			<input>
				<port id="0" precision="FP32">
					<dim>-1</dim>
					<dim>32</dim>
					<dim>80</dim>
					<dim>80</dim>
				</port>
				<port id="1" precision="FP32">
					<dim>1</dim>
					<dim>1</dim>
					<dim>1</dim>
					<dim>1</dim>
				</port>
			</input>
			<output>
				<port id="2" precision="FP32" names="add_15">
					<dim>-1</dim>
					<dim>32</dim>
					<dim>80</dim>
					<dim>80</dim>
				</port>
			</output>
		</layer>
		<layer id="172" name="Constant_12874_compressed" type="Const" version="opset1">
			<data element_type="f16" shape="1, 1, 1, 1" offset="90156" size="2" />
			<output>
				<port id="0" precision="FP16">
					<dim>1</dim>
					<dim>1</dim>
					<dim>1</dim>
					<dim>1</dim>
				</port>
			</output>
		</layer>
		<layer id="173" name="Constant_12874" type="Convert" version="opset1">
			<data destination_type="f32" />
			<rt_info>
				<attribute name="decompression" version="0" />
			</rt_info>
			<input>
				<port id="0" precision="FP16">
					<dim>1</dim>
					<dim>1</dim>
					<dim>1</dim>
					<dim>1</dim>
				</port>
			</input>
			<output>
				<port id="1" precision="FP32">
					<dim>1</dim>
					<dim>1</dim>
					<dim>1</dim>
					<dim>1</dim>
				</port>
			</output>
		</layer>
		<layer id="174" name="model.backbone.stages.1.blocks.0.layers.1.conv.weight_compressed" type="Const" version="opset1">
			<data element_type="f16" shape="32, 32, 3, 3" offset="90158" size="18432" />
			<output>
				<port id="0" precision="FP16" names="model.backbone.stages.1.blocks.0.layers.1.conv.weight">
					<dim>32</dim>
					<dim>32</dim>
					<dim>3</dim>
					<dim>3</dim>
				</port>
			</output>
		</layer>
		<layer id="175" name="model.backbone.stages.1.blocks.0.layers.1.conv.weight" type="Convert" version="opset1">
			<data destination_type="f32" />
			<rt_info>
				<attribute name="decompression" version="0" />
			</rt_info>
			<input>
				<port id="0" precision="FP16">
					<dim>32</dim>
					<dim>32</dim>
					<dim>3</dim>
					<dim>3</dim>
				</port>
			</input>
			<output>
				<port id="1" precision="FP32">
					<dim>32</dim>
					<dim>32</dim>
					<dim>3</dim>
					<dim>3</dim>
				</port>
			</output>
		</layer>
		<layer id="176" name="node_Conv_1552/WithoutBiases" type="Convolution" version="opset1">
			<data strides="1, 1" dilations="1, 1" pads_begin="1, 1" pads_end="1, 1" auto_pad="explicit" />
			<input>
				<port id="0" precision="FP32">
					<dim>-1</dim>
					<dim>32</dim>
					<dim>80</dim>
					<dim>80</dim>
				</port>
				<port id="1" precision="FP32">
					<dim>32</dim>
					<dim>32</dim>
					<dim>3</dim>
					<dim>3</dim>
				</port>
			</input>
			<output>
				<port id="2" precision="FP32">
					<dim>-1</dim>
					<dim>32</dim>
					<dim>80</dim>
					<dim>80</dim>
				</port>
			</output>
		</layer>
		<layer id="177" name="Reshape_306_compressed" type="Const" version="opset1">
			<data element_type="f16" shape="1, 32, 1, 1" offset="108590" size="64" />
			<output>
				<port id="0" precision="FP16">
					<dim>1</dim>
					<dim>32</dim>
					<dim>1</dim>
					<dim>1</dim>
				</port>
			</output>
		</layer>
		<layer id="178" name="Reshape_306" type="Convert" version="opset1">
			<data destination_type="f32" />
			<rt_info>
				<attribute name="decompression" version="0" />
			</rt_info>
			<input>
				<port id="0" precision="FP16">
					<dim>1</dim>
					<dim>32</dim>
					<dim>1</dim>
					<dim>1</dim>
				</port>
			</input>
			<output>
				<port id="1" precision="FP32">
					<dim>1</dim>
					<dim>32</dim>
					<dim>1</dim>
					<dim>1</dim>
				</port>
			</output>
		</layer>
		<layer id="179" name="node_Conv_1552" type="Add" version="opset1">
			<data auto_broadcast="numpy" />
			<input>
				<port id="0" precision="FP32">
					<dim>-1</dim>
					<dim>32</dim>
					<dim>80</dim>
					<dim>80</dim>
				</port>
				<port id="1" precision="FP32">
					<dim>1</dim>
					<dim>32</dim>
					<dim>1</dim>
					<dim>1</dim>
				</port>
			</input>
			<output>
				<port id="2" precision="FP32" names="getitem_36">
					<dim>-1</dim>
					<dim>32</dim>
					<dim>80</dim>
					<dim>80</dim>
				</port>
			</output>
		</layer>
		<layer id="180" name="node_relu_11" type="ReLU" version="opset1">
			<input>
				<port id="0" precision="FP32">
					<dim>-1</dim>
					<dim>32</dim>
					<dim>80</dim>
					<dim>80</dim>
				</port>
			</input>
			<output>
				<port id="1" precision="FP32" names="relu_11">
					<dim>-1</dim>
					<dim>32</dim>
					<dim>80</dim>
					<dim>80</dim>
				</port>
			</output>
		</layer>
		<layer id="181" name="node_mul_16" type="Multiply" version="opset1">
			<data auto_broadcast="numpy" />
			<input>
				<port id="0" precision="FP32">
					<dim>1</dim>
					<dim>1</dim>
					<dim>1</dim>
					<dim>1</dim>
				</port>
				<port id="1" precision="FP32">
					<dim>-1</dim>
					<dim>32</dim>
					<dim>80</dim>
					<dim>80</dim>
				</port>
			</input>
			<output>
				<port id="2" precision="FP32" names="mul_16">
					<dim>-1</dim>
					<dim>32</dim>
					<dim>80</dim>
					<dim>80</dim>
				</port>
			</output>
		</layer>
		<layer id="182" name="Constant_12875_compressed" type="Const" version="opset1">
			<data element_type="f16" shape="1, 1, 1, 1" offset="108654" size="2" />
			<output>
				<port id="0" precision="FP16">
					<dim>1</dim>
					<dim>1</dim>
					<dim>1</dim>
					<dim>1</dim>
				</port>
			</output>
		</layer>
		<layer id="183" name="Constant_12875" type="Convert" version="opset1">
			<data destination_type="f32" />
			<rt_info>
				<attribute name="decompression" version="0" />
			</rt_info>
			<input>
				<port id="0" precision="FP16">
					<dim>1</dim>
					<dim>1</dim>
					<dim>1</dim>
					<dim>1</dim>
				</port>
			</input>
			<output>
				<port id="1" precision="FP32">
					<dim>1</dim>
					<dim>1</dim>
					<dim>1</dim>
					<dim>1</dim>
				</port>
			</output>
		</layer>
		<layer id="184" name="node_add_16" type="Add" version="opset1">
			<data auto_broadcast="numpy" />
			<input>
				<port id="0" precision="FP32">
					<dim>-1</dim>
					<dim>32</dim>
					<dim>80</dim>
					<dim>80</dim>
				</port>
				<port id="1" precision="FP32">
					<dim>1</dim>
					<dim>1</dim>
					<dim>1</dim>
					<dim>1</dim>
				</port>
			</input>
			<output>
				<port id="2" precision="FP32" names="add_16">
					<dim>-1</dim>
					<dim>32</dim>
					<dim>80</dim>
					<dim>80</dim>
				</port>
			</output>
		</layer>
		<layer id="185" name="Constant_12876_compressed" type="Const" version="opset1">
			<data element_type="f16" shape="1, 1, 1, 1" offset="108656" size="2" />
			<output>
				<port id="0" precision="FP16">
					<dim>1</dim>
					<dim>1</dim>
					<dim>1</dim>
					<dim>1</dim>
				</port>
			</output>
		</layer>
		<layer id="186" name="Constant_12876" type="Convert" version="opset1">
			<data destination_type="f32" />
			<rt_info>
				<attribute name="decompression" version="0" />
			</rt_info>
			<input>
				<port id="0" precision="FP16">
					<dim>1</dim>
					<dim>1</dim>
					<dim>1</dim>
					<dim>1</dim>
				</port>
			</input>
			<output>
				<port id="1" precision="FP32">
					<dim>1</dim>
					<dim>1</dim>
					<dim>1</dim>
					<dim>1</dim>
				</port>
			</output>
		</layer>
		<layer id="187" name="model.backbone.stages.1.blocks.0.layers.2.conv.weight_compressed" type="Const" version="opset1">
			<data element_type="f16" shape="32, 32, 3, 3" offset="108658" size="18432" />
			<output>
				<port id="0" precision="FP16" names="model.backbone.stages.1.blocks.0.layers.2.conv.weight">
					<dim>32</dim>
					<dim>32</dim>
					<dim>3</dim>
					<dim>3</dim>
				</port>
			</output>
		</layer>
		<layer id="188" name="model.backbone.stages.1.blocks.0.layers.2.conv.weight" type="Convert" version="opset1">
			<data destination_type="f32" />
			<rt_info>
				<attribute name="decompression" version="0" />
			</rt_info>
			<input>
				<port id="0" precision="FP16">
					<dim>32</dim>
					<dim>32</dim>
					<dim>3</dim>
					<dim>3</dim>
				</port>
			</input>
			<output>
				<port id="1" precision="FP32">
					<dim>32</dim>
					<dim>32</dim>
					<dim>3</dim>
					<dim>3</dim>
				</port>
			</output>
		</layer>
		<layer id="189" name="node_Conv_1554/WithoutBiases" type="Convolution" version="opset1">
			<data strides="1, 1" dilations="1, 1" pads_begin="1, 1" pads_end="1, 1" auto_pad="explicit" />
			<input>
				<port id="0" precision="FP32">
					<dim>-1</dim>
					<dim>32</dim>
					<dim>80</dim>
					<dim>80</dim>
				</port>
				<port id="1" precision="FP32">
					<dim>32</dim>
					<dim>32</dim>
					<dim>3</dim>
					<dim>3</dim>
				</port>
			</input>
			<output>
				<port id="2" precision="FP32">
					<dim>-1</dim>
					<dim>32</dim>
					<dim>80</dim>
					<dim>80</dim>
				</port>
			</output>
		</layer>
		<layer id="190" name="Reshape_326_compressed" type="Const" version="opset1">
			<data element_type="f16" shape="1, 32, 1, 1" offset="127090" size="64" />
			<output>
				<port id="0" precision="FP16">
					<dim>1</dim>
					<dim>32</dim>
					<dim>1</dim>
					<dim>1</dim>
				</port>
			</output>
		</layer>
		<layer id="191" name="Reshape_326" type="Convert" version="opset1">
			<data destination_type="f32" />
			<rt_info>
				<attribute name="decompression" version="0" />
			</rt_info>
			<input>
				<port id="0" precision="FP16">
					<dim>1</dim>
					<dim>32</dim>
					<dim>1</dim>
					<dim>1</dim>
				</port>
			</input>
			<output>
				<port id="1" precision="FP32">
					<dim>1</dim>
					<dim>32</dim>
					<dim>1</dim>
					<dim>1</dim>
				</port>
			</output>
		</layer>
		<layer id="192" name="node_Conv_1554" type="Add" version="opset1">
			<data auto_broadcast="numpy" />
			<input>
				<port id="0" precision="FP32">
					<dim>-1</dim>
					<dim>32</dim>
					<dim>80</dim>
					<dim>80</dim>
				</port>
				<port id="1" precision="FP32">
					<dim>1</dim>
					<dim>32</dim>
					<dim>1</dim>
					<dim>1</dim>
				</port>
			</input>
			<output>
				<port id="2" precision="FP32" names="getitem_39">
					<dim>-1</dim>
					<dim>32</dim>
					<dim>80</dim>
					<dim>80</dim>
				</port>
			</output>
		</layer>
		<layer id="193" name="node_relu_12" type="ReLU" version="opset1">
			<input>
				<port id="0" precision="FP32">
					<dim>-1</dim>
					<dim>32</dim>
					<dim>80</dim>
					<dim>80</dim>
				</port>
			</input>
			<output>
				<port id="1" precision="FP32" names="relu_12">
					<dim>-1</dim>
					<dim>32</dim>
					<dim>80</dim>
					<dim>80</dim>
				</port>
			</output>
		</layer>
		<layer id="194" name="node_mul_17" type="Multiply" version="opset1">
			<data auto_broadcast="numpy" />
			<input>
				<port id="0" precision="FP32">
					<dim>1</dim>
					<dim>1</dim>
					<dim>1</dim>
					<dim>1</dim>
				</port>
				<port id="1" precision="FP32">
					<dim>-1</dim>
					<dim>32</dim>
					<dim>80</dim>
					<dim>80</dim>
				</port>
			</input>
			<output>
				<port id="2" precision="FP32" names="mul_17">
					<dim>-1</dim>
					<dim>32</dim>
					<dim>80</dim>
					<dim>80</dim>
				</port>
			</output>
		</layer>
		<layer id="195" name="Constant_12877_compressed" type="Const" version="opset1">
			<data element_type="f16" shape="1, 1, 1, 1" offset="127154" size="2" />
			<output>
				<port id="0" precision="FP16">
					<dim>1</dim>
					<dim>1</dim>
					<dim>1</dim>
					<dim>1</dim>
				</port>
			</output>
		</layer>
		<layer id="196" name="Constant_12877" type="Convert" version="opset1">
			<data destination_type="f32" />
			<rt_info>
				<attribute name="decompression" version="0" />
			</rt_info>
			<input>
				<port id="0" precision="FP16">
					<dim>1</dim>
					<dim>1</dim>
					<dim>1</dim>
					<dim>1</dim>
				</port>
			</input>
			<output>
				<port id="1" precision="FP32">
					<dim>1</dim>
					<dim>1</dim>
					<dim>1</dim>
					<dim>1</dim>
				</port>
			</output>
		</layer>
		<layer id="197" name="node_add_17" type="Add" version="opset1">
			<data auto_broadcast="numpy" />
			<input>
				<port id="0" precision="FP32">
					<dim>-1</dim>
					<dim>32</dim>
					<dim>80</dim>
					<dim>80</dim>
				</port>
				<port id="1" precision="FP32">
					<dim>1</dim>
					<dim>1</dim>
					<dim>1</dim>
					<dim>1</dim>
				</port>
			</input>
			<output>
				<port id="2" precision="FP32" names="add_17">
					<dim>-1</dim>
					<dim>32</dim>
					<dim>80</dim>
					<dim>80</dim>
				</port>
			</output>
		</layer>
		<layer id="198" name="node_cat_2" type="Concat" version="opset1">
			<data axis="1" />
			<input>
				<port id="0" precision="FP32">
					<dim>-1</dim>
					<dim>64</dim>
					<dim>80</dim>
					<dim>80</dim>
				</port>
				<port id="1" precision="FP32">
					<dim>-1</dim>
					<dim>32</dim>
					<dim>80</dim>
					<dim>80</dim>
				</port>
				<port id="2" precision="FP32">
					<dim>-1</dim>
					<dim>32</dim>
					<dim>80</dim>
					<dim>80</dim>
				</port>
				<port id="3" precision="FP32">
					<dim>-1</dim>
					<dim>32</dim>
					<dim>80</dim>
					<dim>80</dim>
				</port>
			</input>
			<output>
				<port id="4" precision="FP32" names="cat_2">
					<dim>-1</dim>
					<dim>160</dim>
					<dim>80</dim>
					<dim>80</dim>
				</port>
			</output>
		</layer>
		<layer id="199" name="model.backbone.stages.1.blocks.0.aggregation.0.conv.weight_compressed" type="Const" version="opset1">
			<data element_type="f16" shape="128, 160, 1, 1" offset="127156" size="40960" />
			<output>
				<port id="0" precision="FP16" names="model.backbone.stages.1.blocks.0.aggregation.0.conv.weight">
					<dim>128</dim>
					<dim>160</dim>
					<dim>1</dim>
					<dim>1</dim>
				</port>
			</output>
		</layer>
		<layer id="200" name="model.backbone.stages.1.blocks.0.aggregation.0.conv.weight" type="Convert" version="opset1">
			<data destination_type="f32" />
			<rt_info>
				<attribute name="decompression" version="0" />
			</rt_info>
			<input>
				<port id="0" precision="FP16">
					<dim>128</dim>
					<dim>160</dim>
					<dim>1</dim>
					<dim>1</dim>
				</port>
			</input>
			<output>
				<port id="1" precision="FP32">
					<dim>128</dim>
					<dim>160</dim>
					<dim>1</dim>
					<dim>1</dim>
				</port>
			</output>
		</layer>
		<layer id="201" name="node_Conv_1556/WithoutBiases" type="Convolution" version="opset1">
			<data strides="1, 1" dilations="1, 1" pads_begin="0, 0" pads_end="0, 0" auto_pad="explicit" />
			<input>
				<port id="0" precision="FP32">
					<dim>-1</dim>
					<dim>160</dim>
					<dim>80</dim>
					<dim>80</dim>
				</port>
				<port id="1" precision="FP32">
					<dim>128</dim>
					<dim>160</dim>
					<dim>1</dim>
					<dim>1</dim>
				</port>
			</input>
			<output>
				<port id="2" precision="FP32">
					<dim>-1</dim>
					<dim>128</dim>
					<dim>80</dim>
					<dim>80</dim>
				</port>
			</output>
		</layer>
		<layer id="202" name="Reshape_347_compressed" type="Const" version="opset1">
			<data element_type="f16" shape="1, 128, 1, 1" offset="168116" size="256" />
			<output>
				<port id="0" precision="FP16">
					<dim>1</dim>
					<dim>128</dim>
					<dim>1</dim>
					<dim>1</dim>
				</port>
			</output>
		</layer>
		<layer id="203" name="Reshape_347" type="Convert" version="opset1">
			<data destination_type="f32" />
			<rt_info>
				<attribute name="decompression" version="0" />
			</rt_info>
			<input>
				<port id="0" precision="FP16">
					<dim>1</dim>
					<dim>128</dim>
					<dim>1</dim>
					<dim>1</dim>
				</port>
			</input>
			<output>
				<port id="1" precision="FP32">
					<dim>1</dim>
					<dim>128</dim>
					<dim>1</dim>
					<dim>1</dim>
				</port>
			</output>
		</layer>
		<layer id="204" name="node_Conv_1556" type="Add" version="opset1">
			<data auto_broadcast="numpy" />
			<input>
				<port id="0" precision="FP32">
					<dim>-1</dim>
					<dim>128</dim>
					<dim>80</dim>
					<dim>80</dim>
				</port>
				<port id="1" precision="FP32">
					<dim>1</dim>
					<dim>128</dim>
					<dim>1</dim>
					<dim>1</dim>
				</port>
			</input>
			<output>
				<port id="2" precision="FP32" names="getitem_42">
					<dim>-1</dim>
					<dim>128</dim>
					<dim>80</dim>
					<dim>80</dim>
				</port>
			</output>
		</layer>
		<layer id="205" name="node_relu_13" type="ReLU" version="opset1">
			<input>
				<port id="0" precision="FP32">
					<dim>-1</dim>
					<dim>128</dim>
					<dim>80</dim>
					<dim>80</dim>
				</port>
			</input>
			<output>
				<port id="1" precision="FP32" names="relu_13">
					<dim>-1</dim>
					<dim>128</dim>
					<dim>80</dim>
					<dim>80</dim>
				</port>
			</output>
		</layer>
		<layer id="206" name="node_mul_18" type="Multiply" version="opset1">
			<data auto_broadcast="numpy" />
			<input>
				<port id="0" precision="FP32">
					<dim>1</dim>
					<dim>1</dim>
					<dim>1</dim>
					<dim>1</dim>
				</port>
				<port id="1" precision="FP32">
					<dim>-1</dim>
					<dim>128</dim>
					<dim>80</dim>
					<dim>80</dim>
				</port>
			</input>
			<output>
				<port id="2" precision="FP32" names="mul_18">
					<dim>-1</dim>
					<dim>128</dim>
					<dim>80</dim>
					<dim>80</dim>
				</port>
			</output>
		</layer>
		<layer id="207" name="Constant_12879_compressed" type="Const" version="opset1">
			<data element_type="f16" shape="1, 1, 1, 1" offset="168372" size="2" />
			<output>
				<port id="0" precision="FP16">
					<dim>1</dim>
					<dim>1</dim>
					<dim>1</dim>
					<dim>1</dim>
				</port>
			</output>
		</layer>
		<layer id="208" name="Constant_12879" type="Convert" version="opset1">
			<data destination_type="f32" />
			<rt_info>
				<attribute name="decompression" version="0" />
			</rt_info>
			<input>
				<port id="0" precision="FP16">
					<dim>1</dim>
					<dim>1</dim>
					<dim>1</dim>
					<dim>1</dim>
				</port>
			</input>
			<output>
				<port id="1" precision="FP32">
					<dim>1</dim>
					<dim>1</dim>
					<dim>1</dim>
					<dim>1</dim>
				</port>
			</output>
		</layer>
		<layer id="209" name="node_add_18" type="Add" version="opset1">
			<data auto_broadcast="numpy" />
			<input>
				<port id="0" precision="FP32">
					<dim>-1</dim>
					<dim>128</dim>
					<dim>80</dim>
					<dim>80</dim>
				</port>
				<port id="1" precision="FP32">
					<dim>1</dim>
					<dim>1</dim>
					<dim>1</dim>
					<dim>1</dim>
				</port>
			</input>
			<output>
				<port id="2" precision="FP32" names="add_18">
					<dim>-1</dim>
					<dim>128</dim>
					<dim>80</dim>
					<dim>80</dim>
				</port>
			</output>
		</layer>
		<layer id="210" name="model.backbone.stages.1.blocks.0.aggregation.1.conv.weight_compressed" type="Const" version="opset1">
			<data element_type="f16" shape="256, 128, 1, 1" offset="168374" size="65536" />
			<output>
				<port id="0" precision="FP16" names="model.backbone.stages.1.blocks.0.aggregation.1.conv.weight">
					<dim>256</dim>
					<dim>128</dim>
					<dim>1</dim>
					<dim>1</dim>
				</port>
			</output>
		</layer>
		<layer id="211" name="model.backbone.stages.1.blocks.0.aggregation.1.conv.weight" type="Convert" version="opset1">
			<data destination_type="f32" />
			<rt_info>
				<attribute name="decompression" version="0" />
			</rt_info>
			<input>
				<port id="0" precision="FP16">
					<dim>256</dim>
					<dim>128</dim>
					<dim>1</dim>
					<dim>1</dim>
				</port>
			</input>
			<output>
				<port id="1" precision="FP32">
					<dim>256</dim>
					<dim>128</dim>
					<dim>1</dim>
					<dim>1</dim>
				</port>
			</output>
		</layer>
		<layer id="212" name="node_Conv_1558/WithoutBiases" type="Convolution" version="opset1">
			<data strides="1, 1" dilations="1, 1" pads_begin="0, 0" pads_end="0, 0" auto_pad="explicit" />
			<input>
				<port id="0" precision="FP32">
					<dim>-1</dim>
					<dim>128</dim>
					<dim>80</dim>
					<dim>80</dim>
				</port>
				<port id="1" precision="FP32">
					<dim>256</dim>
					<dim>128</dim>
					<dim>1</dim>
					<dim>1</dim>
				</port>
			</input>
			<output>
				<port id="2" precision="FP32">
					<dim>-1</dim>
					<dim>256</dim>
					<dim>80</dim>
					<dim>80</dim>
				</port>
			</output>
		</layer>
		<layer id="213" name="Reshape_367_compressed" type="Const" version="opset1">
			<data element_type="f16" shape="1, 256, 1, 1" offset="233910" size="512" />
			<output>
				<port id="0" precision="FP16">
					<dim>1</dim>
					<dim>256</dim>
					<dim>1</dim>
					<dim>1</dim>
				</port>
			</output>
		</layer>
		<layer id="214" name="Reshape_367" type="Convert" version="opset1">
			<data destination_type="f32" />
			<rt_info>
				<attribute name="decompression" version="0" />
			</rt_info>
			<input>
				<port id="0" precision="FP16">
					<dim>1</dim>
					<dim>256</dim>
					<dim>1</dim>
					<dim>1</dim>
				</port>
			</input>
			<output>
				<port id="1" precision="FP32">
					<dim>1</dim>
					<dim>256</dim>
					<dim>1</dim>
					<dim>1</dim>
				</port>
			</output>
		</layer>
		<layer id="215" name="node_Conv_1558" type="Add" version="opset1">
			<data auto_broadcast="numpy" />
			<input>
				<port id="0" precision="FP32">
					<dim>-1</dim>
					<dim>256</dim>
					<dim>80</dim>
					<dim>80</dim>
				</port>
				<port id="1" precision="FP32">
					<dim>1</dim>
					<dim>256</dim>
					<dim>1</dim>
					<dim>1</dim>
				</port>
			</input>
			<output>
				<port id="2" precision="FP32" names="getitem_45">
					<dim>-1</dim>
					<dim>256</dim>
					<dim>80</dim>
					<dim>80</dim>
				</port>
			</output>
		</layer>
		<layer id="216" name="node_relu_14" type="ReLU" version="opset1">
			<input>
				<port id="0" precision="FP32">
					<dim>-1</dim>
					<dim>256</dim>
					<dim>80</dim>
					<dim>80</dim>
				</port>
			</input>
			<output>
				<port id="1" precision="FP32" names="relu_14">
					<dim>-1</dim>
					<dim>256</dim>
					<dim>80</dim>
					<dim>80</dim>
				</port>
			</output>
		</layer>
		<layer id="217" name="node_mul_19" type="Multiply" version="opset1">
			<data auto_broadcast="numpy" />
			<input>
				<port id="0" precision="FP32">
					<dim>1</dim>
					<dim>1</dim>
					<dim>1</dim>
					<dim>1</dim>
				</port>
				<port id="1" precision="FP32">
					<dim>-1</dim>
					<dim>256</dim>
					<dim>80</dim>
					<dim>80</dim>
				</port>
			</input>
			<output>
				<port id="2" precision="FP32" names="mul_19">
					<dim>-1</dim>
					<dim>256</dim>
					<dim>80</dim>
					<dim>80</dim>
				</port>
			</output>
		</layer>
		<layer id="218" name="Constant_12881_compressed" type="Const" version="opset1">
			<data element_type="f16" shape="1, 1, 1, 1" offset="234422" size="2" />
			<output>
				<port id="0" precision="FP16">
					<dim>1</dim>
					<dim>1</dim>
					<dim>1</dim>
					<dim>1</dim>
				</port>
			</output>
		</layer>
		<layer id="219" name="Constant_12881" type="Convert" version="opset1">
			<data destination_type="f32" />
			<rt_info>
				<attribute name="decompression" version="0" />
			</rt_info>
			<input>
				<port id="0" precision="FP16">
					<dim>1</dim>
					<dim>1</dim>
					<dim>1</dim>
					<dim>1</dim>
				</port>
			</input>
			<output>
				<port id="1" precision="FP32">
					<dim>1</dim>
					<dim>1</dim>
					<dim>1</dim>
					<dim>1</dim>
				</port>
			</output>
		</layer>
		<layer id="220" name="node_add_19" type="Add" version="opset1">
			<data auto_broadcast="numpy" />
			<input>
				<port id="0" precision="FP32">
					<dim>-1</dim>
					<dim>256</dim>
					<dim>80</dim>
					<dim>80</dim>
				</port>
				<port id="1" precision="FP32">
					<dim>1</dim>
					<dim>1</dim>
					<dim>1</dim>
					<dim>1</dim>
				</port>
			</input>
			<output>
				<port id="2" precision="FP32" names="add_19">
					<dim>-1</dim>
					<dim>256</dim>
					<dim>80</dim>
					<dim>80</dim>
				</port>
			</output>
		</layer>
		<layer id="221" name="Reshape_383_compressed" type="Const" version="opset1">
			<data element_type="f16" shape="256, 1, 1, 3, 3" offset="234424" size="4608" />
			<output>
				<port id="0" precision="FP16">
					<dim>256</dim>
					<dim>1</dim>
					<dim>1</dim>
					<dim>3</dim>
					<dim>3</dim>
				</port>
			</output>
		</layer>
		<layer id="222" name="Reshape_383" type="Convert" version="opset1">
			<data destination_type="f32" />
			<rt_info>
				<attribute name="decompression" version="0" />
			</rt_info>
			<input>
				<port id="0" precision="FP16">
					<dim>256</dim>
					<dim>1</dim>
					<dim>1</dim>
					<dim>3</dim>
					<dim>3</dim>
				</port>
			</input>
			<output>
				<port id="1" precision="FP32">
					<dim>256</dim>
					<dim>1</dim>
					<dim>1</dim>
					<dim>3</dim>
					<dim>3</dim>
				</port>
			</output>
		</layer>
		<layer id="223" name="node_Conv_1560/WithoutBiases" type="GroupConvolution" version="opset1">
			<data strides="2, 2" pads_begin="1, 1" pads_end="1, 1" dilations="1, 1" auto_pad="explicit" />
			<input>
				<port id="0" precision="FP32">
					<dim>-1</dim>
					<dim>256</dim>
					<dim>80</dim>
					<dim>80</dim>
				</port>
				<port id="1" precision="FP32">
					<dim>256</dim>
					<dim>1</dim>
					<dim>1</dim>
					<dim>3</dim>
					<dim>3</dim>
				</port>
			</input>
			<output>
				<port id="2" precision="FP32">
					<dim>-1</dim>
					<dim>256</dim>
					<dim>40</dim>
					<dim>40</dim>
				</port>
			</output>
		</layer>
		<layer id="224" name="Reshape_433_compressed" type="Const" version="opset1">
			<data element_type="f16" shape="1, 256, 1, 1" offset="239032" size="512" />
			<output>
				<port id="0" precision="FP16">
					<dim>1</dim>
					<dim>256</dim>
					<dim>1</dim>
					<dim>1</dim>
				</port>
			</output>
		</layer>
		<layer id="225" name="Reshape_433" type="Convert" version="opset1">
			<data destination_type="f32" />
			<rt_info>
				<attribute name="decompression" version="0" />
			</rt_info>
			<input>
				<port id="0" precision="FP16">
					<dim>1</dim>
					<dim>256</dim>
					<dim>1</dim>
					<dim>1</dim>
				</port>
			</input>
			<output>
				<port id="1" precision="FP32">
					<dim>1</dim>
					<dim>256</dim>
					<dim>1</dim>
					<dim>1</dim>
				</port>
			</output>
		</layer>
		<layer id="226" name="node_Conv_1560" type="Add" version="opset1">
			<data auto_broadcast="numpy" />
			<input>
				<port id="0" precision="FP32">
					<dim>-1</dim>
					<dim>256</dim>
					<dim>40</dim>
					<dim>40</dim>
				</port>
				<port id="1" precision="FP32">
					<dim>1</dim>
					<dim>256</dim>
					<dim>1</dim>
					<dim>1</dim>
				</port>
			</input>
			<output>
				<port id="2" precision="FP32" names="getitem_48">
					<dim>-1</dim>
					<dim>256</dim>
					<dim>40</dim>
					<dim>40</dim>
				</port>
			</output>
		</layer>
		<layer id="227" name="Constant_12882_compressed" type="Const" version="opset1">
			<data element_type="f16" shape="1, 1, 1, 1" offset="239544" size="2" />
			<output>
				<port id="0" precision="FP16">
					<dim>1</dim>
					<dim>1</dim>
					<dim>1</dim>
					<dim>1</dim>
				</port>
			</output>
		</layer>
		<layer id="228" name="Constant_12882" type="Convert" version="opset1">
			<data destination_type="f32" />
			<rt_info>
				<attribute name="decompression" version="0" />
			</rt_info>
			<input>
				<port id="0" precision="FP16">
					<dim>1</dim>
					<dim>1</dim>
					<dim>1</dim>
					<dim>1</dim>
				</port>
			</input>
			<output>
				<port id="1" precision="FP32">
					<dim>1</dim>
					<dim>1</dim>
					<dim>1</dim>
					<dim>1</dim>
				</port>
			</output>
		</layer>
		<layer id="229" name="model.backbone.stages.2.blocks.0.layers.0.conv1.conv.weight_compressed" type="Const" version="opset1">
			<data element_type="f16" shape="64, 256, 1, 1" offset="239546" size="32768" />
			<output>
				<port id="0" precision="FP16" names="model.backbone.stages.2.blocks.0.layers.0.conv1.conv.weight">
					<dim>64</dim>
					<dim>256</dim>
					<dim>1</dim>
					<dim>1</dim>
				</port>
			</output>
		</layer>
		<layer id="230" name="model.backbone.stages.2.blocks.0.layers.0.conv1.conv.weight" type="Convert" version="opset1">
			<data destination_type="f32" />
			<rt_info>
				<attribute name="decompression" version="0" />
			</rt_info>
			<input>
				<port id="0" precision="FP16">
					<dim>64</dim>
					<dim>256</dim>
					<dim>1</dim>
					<dim>1</dim>
				</port>
			</input>
			<output>
				<port id="1" precision="FP32">
					<dim>64</dim>
					<dim>256</dim>
					<dim>1</dim>
					<dim>1</dim>
				</port>
			</output>
		</layer>
		<layer id="231" name="node_Conv_1562/WithoutBiases" type="Convolution" version="opset1">
			<data strides="1, 1" dilations="1, 1" pads_begin="0, 0" pads_end="0, 0" auto_pad="explicit" />
			<input>
				<port id="0" precision="FP32">
					<dim>-1</dim>
					<dim>256</dim>
					<dim>40</dim>
					<dim>40</dim>
				</port>
				<port id="1" precision="FP32">
					<dim>64</dim>
					<dim>256</dim>
					<dim>1</dim>
					<dim>1</dim>
				</port>
			</input>
			<output>
				<port id="2" precision="FP32">
					<dim>-1</dim>
					<dim>64</dim>
					<dim>40</dim>
					<dim>40</dim>
				</port>
			</output>
		</layer>
		<layer id="232" name="Reshape_448_compressed" type="Const" version="opset1">
			<data element_type="f16" shape="1, 64, 1, 1" offset="272314" size="128" />
			<output>
				<port id="0" precision="FP16">
					<dim>1</dim>
					<dim>64</dim>
					<dim>1</dim>
					<dim>1</dim>
				</port>
			</output>
		</layer>
		<layer id="233" name="Reshape_448" type="Convert" version="opset1">
			<data destination_type="f32" />
			<rt_info>
				<attribute name="decompression" version="0" />
			</rt_info>
			<input>
				<port id="0" precision="FP16">
					<dim>1</dim>
					<dim>64</dim>
					<dim>1</dim>
					<dim>1</dim>
				</port>
			</input>
			<output>
				<port id="1" precision="FP32">
					<dim>1</dim>
					<dim>64</dim>
					<dim>1</dim>
					<dim>1</dim>
				</port>
			</output>
		</layer>
		<layer id="234" name="node_Conv_1562" type="Add" version="opset1">
			<data auto_broadcast="numpy" />
			<input>
				<port id="0" precision="FP32">
					<dim>-1</dim>
					<dim>64</dim>
					<dim>40</dim>
					<dim>40</dim>
				</port>
				<port id="1" precision="FP32">
					<dim>1</dim>
					<dim>64</dim>
					<dim>1</dim>
					<dim>1</dim>
				</port>
			</input>
			<output>
				<port id="2" precision="FP32" names="getitem_51">
					<dim>-1</dim>
					<dim>64</dim>
					<dim>40</dim>
					<dim>40</dim>
				</port>
			</output>
		</layer>
		<layer id="235" name="Reshape_459_compressed" type="Const" version="opset1">
			<data element_type="f16" shape="64, 1, 1, 5, 5" offset="272442" size="3200" />
			<output>
				<port id="0" precision="FP16">
					<dim>64</dim>
					<dim>1</dim>
					<dim>1</dim>
					<dim>5</dim>
					<dim>5</dim>
				</port>
			</output>
		</layer>
		<layer id="236" name="Reshape_459" type="Convert" version="opset1">
			<data destination_type="f32" />
			<rt_info>
				<attribute name="decompression" version="0" />
			</rt_info>
			<input>
				<port id="0" precision="FP16">
					<dim>64</dim>
					<dim>1</dim>
					<dim>1</dim>
					<dim>5</dim>
					<dim>5</dim>
				</port>
			</input>
			<output>
				<port id="1" precision="FP32">
					<dim>64</dim>
					<dim>1</dim>
					<dim>1</dim>
					<dim>5</dim>
					<dim>5</dim>
				</port>
			</output>
		</layer>
		<layer id="237" name="node_Conv_1564/WithoutBiases" type="GroupConvolution" version="opset1">
			<data strides="1, 1" pads_begin="2, 2" pads_end="2, 2" dilations="1, 1" auto_pad="explicit" />
			<input>
				<port id="0" precision="FP32">
					<dim>-1</dim>
					<dim>64</dim>
					<dim>40</dim>
					<dim>40</dim>
				</port>
				<port id="1" precision="FP32">
					<dim>64</dim>
					<dim>1</dim>
					<dim>1</dim>
					<dim>5</dim>
					<dim>5</dim>
				</port>
			</input>
			<output>
				<port id="2" precision="FP32">
					<dim>-1</dim>
					<dim>64</dim>
					<dim>40</dim>
					<dim>40</dim>
				</port>
			</output>
		</layer>
		<layer id="238" name="Reshape_509_compressed" type="Const" version="opset1">
			<data element_type="f16" shape="1, 64, 1, 1" offset="275642" size="128" />
			<output>
				<port id="0" precision="FP16">
					<dim>1</dim>
					<dim>64</dim>
					<dim>1</dim>
					<dim>1</dim>
				</port>
			</output>
		</layer>
		<layer id="239" name="Reshape_509" type="Convert" version="opset1">
			<data destination_type="f32" />
			<rt_info>
				<attribute name="decompression" version="0" />
			</rt_info>
			<input>
				<port id="0" precision="FP16">
					<dim>1</dim>
					<dim>64</dim>
					<dim>1</dim>
					<dim>1</dim>
				</port>
			</input>
			<output>
				<port id="1" precision="FP32">
					<dim>1</dim>
					<dim>64</dim>
					<dim>1</dim>
					<dim>1</dim>
				</port>
			</output>
		</layer>
		<layer id="240" name="node_Conv_1564" type="Add" version="opset1">
			<data auto_broadcast="numpy" />
			<input>
				<port id="0" precision="FP32">
					<dim>-1</dim>
					<dim>64</dim>
					<dim>40</dim>
					<dim>40</dim>
				</port>
				<port id="1" precision="FP32">
					<dim>1</dim>
					<dim>64</dim>
					<dim>1</dim>
					<dim>1</dim>
				</port>
			</input>
			<output>
				<port id="2" precision="FP32" names="getitem_54">
					<dim>-1</dim>
					<dim>64</dim>
					<dim>40</dim>
					<dim>40</dim>
				</port>
			</output>
		</layer>
		<layer id="241" name="node_relu_15" type="ReLU" version="opset1">
			<input>
				<port id="0" precision="FP32">
					<dim>-1</dim>
					<dim>64</dim>
					<dim>40</dim>
					<dim>40</dim>
				</port>
			</input>
			<output>
				<port id="1" precision="FP32" names="relu_15">
					<dim>-1</dim>
					<dim>64</dim>
					<dim>40</dim>
					<dim>40</dim>
				</port>
			</output>
		</layer>
		<layer id="242" name="node_mul_20" type="Multiply" version="opset1">
			<data auto_broadcast="numpy" />
			<input>
				<port id="0" precision="FP32">
					<dim>1</dim>
					<dim>1</dim>
					<dim>1</dim>
					<dim>1</dim>
				</port>
				<port id="1" precision="FP32">
					<dim>-1</dim>
					<dim>64</dim>
					<dim>40</dim>
					<dim>40</dim>
				</port>
			</input>
			<output>
				<port id="2" precision="FP32" names="mul_20">
					<dim>-1</dim>
					<dim>64</dim>
					<dim>40</dim>
					<dim>40</dim>
				</port>
			</output>
		</layer>
		<layer id="243" name="Constant_12883_compressed" type="Const" version="opset1">
			<data element_type="f16" shape="1, 1, 1, 1" offset="275770" size="2" />
			<output>
				<port id="0" precision="FP16">
					<dim>1</dim>
					<dim>1</dim>
					<dim>1</dim>
					<dim>1</dim>
				</port>
			</output>
		</layer>
		<layer id="244" name="Constant_12883" type="Convert" version="opset1">
			<data destination_type="f32" />
			<rt_info>
				<attribute name="decompression" version="0" />
			</rt_info>
			<input>
				<port id="0" precision="FP16">
					<dim>1</dim>
					<dim>1</dim>
					<dim>1</dim>
					<dim>1</dim>
				</port>
			</input>
			<output>
				<port id="1" precision="FP32">
					<dim>1</dim>
					<dim>1</dim>
					<dim>1</dim>
					<dim>1</dim>
				</port>
			</output>
		</layer>
		<layer id="245" name="node_add_20" type="Add" version="opset1">
			<data auto_broadcast="numpy" />
			<input>
				<port id="0" precision="FP32">
					<dim>-1</dim>
					<dim>64</dim>
					<dim>40</dim>
					<dim>40</dim>
				</port>
				<port id="1" precision="FP32">
					<dim>1</dim>
					<dim>1</dim>
					<dim>1</dim>
					<dim>1</dim>
				</port>
			</input>
			<output>
				<port id="2" precision="FP32" names="add_20">
					<dim>-1</dim>
					<dim>64</dim>
					<dim>40</dim>
					<dim>40</dim>
				</port>
			</output>
		</layer>
		<layer id="246" name="Constant_12884_compressed" type="Const" version="opset1">
			<data element_type="f16" shape="1, 1, 1, 1" offset="275772" size="2" />
			<output>
				<port id="0" precision="FP16">
					<dim>1</dim>
					<dim>1</dim>
					<dim>1</dim>
					<dim>1</dim>
				</port>
			</output>
		</layer>
		<layer id="247" name="Constant_12884" type="Convert" version="opset1">
			<data destination_type="f32" />
			<rt_info>
				<attribute name="decompression" version="0" />
			</rt_info>
			<input>
				<port id="0" precision="FP16">
					<dim>1</dim>
					<dim>1</dim>
					<dim>1</dim>
					<dim>1</dim>
				</port>
			</input>
			<output>
				<port id="1" precision="FP32">
					<dim>1</dim>
					<dim>1</dim>
					<dim>1</dim>
					<dim>1</dim>
				</port>
			</output>
		</layer>
		<layer id="248" name="model.backbone.stages.2.blocks.0.layers.1.conv1.conv.weight_compressed" type="Const" version="opset1">
			<data element_type="f16" shape="64, 64, 1, 1" offset="275774" size="8192" />
			<output>
				<port id="0" precision="FP16" names="model.backbone.stages.2.blocks.0.layers.1.conv1.conv.weight">
					<dim>64</dim>
					<dim>64</dim>
					<dim>1</dim>
					<dim>1</dim>
				</port>
			</output>
		</layer>
		<layer id="249" name="model.backbone.stages.2.blocks.0.layers.1.conv1.conv.weight" type="Convert" version="opset1">
			<data destination_type="f32" />
			<rt_info>
				<attribute name="decompression" version="0" />
			</rt_info>
			<input>
				<port id="0" precision="FP16">
					<dim>64</dim>
					<dim>64</dim>
					<dim>1</dim>
					<dim>1</dim>
				</port>
			</input>
			<output>
				<port id="1" precision="FP32">
					<dim>64</dim>
					<dim>64</dim>
					<dim>1</dim>
					<dim>1</dim>
				</port>
			</output>
		</layer>
		<layer id="250" name="node_Conv_1566/WithoutBiases" type="Convolution" version="opset1">
			<data strides="1, 1" dilations="1, 1" pads_begin="0, 0" pads_end="0, 0" auto_pad="explicit" />
			<input>
				<port id="0" precision="FP32">
					<dim>-1</dim>
					<dim>64</dim>
					<dim>40</dim>
					<dim>40</dim>
				</port>
				<port id="1" precision="FP32">
					<dim>64</dim>
					<dim>64</dim>
					<dim>1</dim>
					<dim>1</dim>
				</port>
			</input>
			<output>
				<port id="2" precision="FP32">
					<dim>-1</dim>
					<dim>64</dim>
					<dim>40</dim>
					<dim>40</dim>
				</port>
			</output>
		</layer>
		<layer id="251" name="Reshape_529_compressed" type="Const" version="opset1">
			<data element_type="f16" shape="1, 64, 1, 1" offset="283966" size="128" />
			<output>
				<port id="0" precision="FP16">
					<dim>1</dim>
					<dim>64</dim>
					<dim>1</dim>
					<dim>1</dim>
				</port>
			</output>
		</layer>
		<layer id="252" name="Reshape_529" type="Convert" version="opset1">
			<data destination_type="f32" />
			<rt_info>
				<attribute name="decompression" version="0" />
			</rt_info>
			<input>
				<port id="0" precision="FP16">
					<dim>1</dim>
					<dim>64</dim>
					<dim>1</dim>
					<dim>1</dim>
				</port>
			</input>
			<output>
				<port id="1" precision="FP32">
					<dim>1</dim>
					<dim>64</dim>
					<dim>1</dim>
					<dim>1</dim>
				</port>
			</output>
		</layer>
		<layer id="253" name="node_Conv_1566" type="Add" version="opset1">
			<data auto_broadcast="numpy" />
			<input>
				<port id="0" precision="FP32">
					<dim>-1</dim>
					<dim>64</dim>
					<dim>40</dim>
					<dim>40</dim>
				</port>
				<port id="1" precision="FP32">
					<dim>1</dim>
					<dim>64</dim>
					<dim>1</dim>
					<dim>1</dim>
				</port>
			</input>
			<output>
				<port id="2" precision="FP32" names="getitem_57">
					<dim>-1</dim>
					<dim>64</dim>
					<dim>40</dim>
					<dim>40</dim>
				</port>
			</output>
		</layer>
		<layer id="254" name="Reshape_540_compressed" type="Const" version="opset1">
			<data element_type="f16" shape="64, 1, 1, 5, 5" offset="284094" size="3200" />
			<output>
				<port id="0" precision="FP16">
					<dim>64</dim>
					<dim>1</dim>
					<dim>1</dim>
					<dim>5</dim>
					<dim>5</dim>
				</port>
			</output>
		</layer>
		<layer id="255" name="Reshape_540" type="Convert" version="opset1">
			<data destination_type="f32" />
			<rt_info>
				<attribute name="decompression" version="0" />
			</rt_info>
			<input>
				<port id="0" precision="FP16">
					<dim>64</dim>
					<dim>1</dim>
					<dim>1</dim>
					<dim>5</dim>
					<dim>5</dim>
				</port>
			</input>
			<output>
				<port id="1" precision="FP32">
					<dim>64</dim>
					<dim>1</dim>
					<dim>1</dim>
					<dim>5</dim>
					<dim>5</dim>
				</port>
			</output>
		</layer>
		<layer id="256" name="node_Conv_1568/WithoutBiases" type="GroupConvolution" version="opset1">
			<data strides="1, 1" pads_begin="2, 2" pads_end="2, 2" dilations="1, 1" auto_pad="explicit" />
			<input>
				<port id="0" precision="FP32">
					<dim>-1</dim>
					<dim>64</dim>
					<dim>40</dim>
					<dim>40</dim>
				</port>
				<port id="1" precision="FP32">
					<dim>64</dim>
					<dim>1</dim>
					<dim>1</dim>
					<dim>5</dim>
					<dim>5</dim>
				</port>
			</input>
			<output>
				<port id="2" precision="FP32">
					<dim>-1</dim>
					<dim>64</dim>
					<dim>40</dim>
					<dim>40</dim>
				</port>
			</output>
		</layer>
		<layer id="257" name="Reshape_590_compressed" type="Const" version="opset1">
			<data element_type="f16" shape="1, 64, 1, 1" offset="287294" size="128" />
			<output>
				<port id="0" precision="FP16">
					<dim>1</dim>
					<dim>64</dim>
					<dim>1</dim>
					<dim>1</dim>
				</port>
			</output>
		</layer>
		<layer id="258" name="Reshape_590" type="Convert" version="opset1">
			<data destination_type="f32" />
			<rt_info>
				<attribute name="decompression" version="0" />
			</rt_info>
			<input>
				<port id="0" precision="FP16">
					<dim>1</dim>
					<dim>64</dim>
					<dim>1</dim>
					<dim>1</dim>
				</port>
			</input>
			<output>
				<port id="1" precision="FP32">
					<dim>1</dim>
					<dim>64</dim>
					<dim>1</dim>
					<dim>1</dim>
				</port>
			</output>
		</layer>
		<layer id="259" name="node_Conv_1568" type="Add" version="opset1">
			<data auto_broadcast="numpy" />
			<input>
				<port id="0" precision="FP32">
					<dim>-1</dim>
					<dim>64</dim>
					<dim>40</dim>
					<dim>40</dim>
				</port>
				<port id="1" precision="FP32">
					<dim>1</dim>
					<dim>64</dim>
					<dim>1</dim>
					<dim>1</dim>
				</port>
			</input>
			<output>
				<port id="2" precision="FP32" names="getitem_60">
					<dim>-1</dim>
					<dim>64</dim>
					<dim>40</dim>
					<dim>40</dim>
				</port>
			</output>
		</layer>
		<layer id="260" name="node_relu_16" type="ReLU" version="opset1">
			<input>
				<port id="0" precision="FP32">
					<dim>-1</dim>
					<dim>64</dim>
					<dim>40</dim>
					<dim>40</dim>
				</port>
			</input>
			<output>
				<port id="1" precision="FP32" names="relu_16">
					<dim>-1</dim>
					<dim>64</dim>
					<dim>40</dim>
					<dim>40</dim>
				</port>
			</output>
		</layer>
		<layer id="261" name="node_mul_21" type="Multiply" version="opset1">
			<data auto_broadcast="numpy" />
			<input>
				<port id="0" precision="FP32">
					<dim>1</dim>
					<dim>1</dim>
					<dim>1</dim>
					<dim>1</dim>
				</port>
				<port id="1" precision="FP32">
					<dim>-1</dim>
					<dim>64</dim>
					<dim>40</dim>
					<dim>40</dim>
				</port>
			</input>
			<output>
				<port id="2" precision="FP32" names="mul_21">
					<dim>-1</dim>
					<dim>64</dim>
					<dim>40</dim>
					<dim>40</dim>
				</port>
			</output>
		</layer>
		<layer id="262" name="Constant_12885_compressed" type="Const" version="opset1">
			<data element_type="f16" shape="1, 1, 1, 1" offset="287422" size="2" />
			<output>
				<port id="0" precision="FP16">
					<dim>1</dim>
					<dim>1</dim>
					<dim>1</dim>
					<dim>1</dim>
				</port>
			</output>
		</layer>
		<layer id="263" name="Constant_12885" type="Convert" version="opset1">
			<data destination_type="f32" />
			<rt_info>
				<attribute name="decompression" version="0" />
			</rt_info>
			<input>
				<port id="0" precision="FP16">
					<dim>1</dim>
					<dim>1</dim>
					<dim>1</dim>
					<dim>1</dim>
				</port>
			</input>
			<output>
				<port id="1" precision="FP32">
					<dim>1</dim>
					<dim>1</dim>
					<dim>1</dim>
					<dim>1</dim>
				</port>
			</output>
		</layer>
		<layer id="264" name="node_add_21" type="Add" version="opset1">
			<data auto_broadcast="numpy" />
			<input>
				<port id="0" precision="FP32">
					<dim>-1</dim>
					<dim>64</dim>
					<dim>40</dim>
					<dim>40</dim>
				</port>
				<port id="1" precision="FP32">
					<dim>1</dim>
					<dim>1</dim>
					<dim>1</dim>
					<dim>1</dim>
				</port>
			</input>
			<output>
				<port id="2" precision="FP32" names="add_21">
					<dim>-1</dim>
					<dim>64</dim>
					<dim>40</dim>
					<dim>40</dim>
				</port>
			</output>
		</layer>
		<layer id="265" name="Constant_12886_compressed" type="Const" version="opset1">
			<data element_type="f16" shape="1, 1, 1, 1" offset="287424" size="2" />
			<output>
				<port id="0" precision="FP16">
					<dim>1</dim>
					<dim>1</dim>
					<dim>1</dim>
					<dim>1</dim>
				</port>
			</output>
		</layer>
		<layer id="266" name="Constant_12886" type="Convert" version="opset1">
			<data destination_type="f32" />
			<rt_info>
				<attribute name="decompression" version="0" />
			</rt_info>
			<input>
				<port id="0" precision="FP16">
					<dim>1</dim>
					<dim>1</dim>
					<dim>1</dim>
					<dim>1</dim>
				</port>
			</input>
			<output>
				<port id="1" precision="FP32">
					<dim>1</dim>
					<dim>1</dim>
					<dim>1</dim>
					<dim>1</dim>
				</port>
			</output>
		</layer>
		<layer id="267" name="model.backbone.stages.2.blocks.0.layers.2.conv1.conv.weight_compressed" type="Const" version="opset1">
			<data element_type="f16" shape="64, 64, 1, 1" offset="287426" size="8192" />
			<output>
				<port id="0" precision="FP16" names="model.backbone.stages.2.blocks.0.layers.2.conv1.conv.weight">
					<dim>64</dim>
					<dim>64</dim>
					<dim>1</dim>
					<dim>1</dim>
				</port>
			</output>
		</layer>
		<layer id="268" name="model.backbone.stages.2.blocks.0.layers.2.conv1.conv.weight" type="Convert" version="opset1">
			<data destination_type="f32" />
			<rt_info>
				<attribute name="decompression" version="0" />
			</rt_info>
			<input>
				<port id="0" precision="FP16">
					<dim>64</dim>
					<dim>64</dim>
					<dim>1</dim>
					<dim>1</dim>
				</port>
			</input>
			<output>
				<port id="1" precision="FP32">
					<dim>64</dim>
					<dim>64</dim>
					<dim>1</dim>
					<dim>1</dim>
				</port>
			</output>
		</layer>
		<layer id="269" name="node_Conv_1570/WithoutBiases" type="Convolution" version="opset1">
			<data strides="1, 1" dilations="1, 1" pads_begin="0, 0" pads_end="0, 0" auto_pad="explicit" />
			<input>
				<port id="0" precision="FP32">
					<dim>-1</dim>
					<dim>64</dim>
					<dim>40</dim>
					<dim>40</dim>
				</port>
				<port id="1" precision="FP32">
					<dim>64</dim>
					<dim>64</dim>
					<dim>1</dim>
					<dim>1</dim>
				</port>
			</input>
			<output>
				<port id="2" precision="FP32">
					<dim>-1</dim>
					<dim>64</dim>
					<dim>40</dim>
					<dim>40</dim>
				</port>
			</output>
		</layer>
		<layer id="270" name="Reshape_610_compressed" type="Const" version="opset1">
			<data element_type="f16" shape="1, 64, 1, 1" offset="295618" size="128" />
			<output>
				<port id="0" precision="FP16">
					<dim>1</dim>
					<dim>64</dim>
					<dim>1</dim>
					<dim>1</dim>
				</port>
			</output>
		</layer>
		<layer id="271" name="Reshape_610" type="Convert" version="opset1">
			<data destination_type="f32" />
			<rt_info>
				<attribute name="decompression" version="0" />
			</rt_info>
			<input>
				<port id="0" precision="FP16">
					<dim>1</dim>
					<dim>64</dim>
					<dim>1</dim>
					<dim>1</dim>
				</port>
			</input>
			<output>
				<port id="1" precision="FP32">
					<dim>1</dim>
					<dim>64</dim>
					<dim>1</dim>
					<dim>1</dim>
				</port>
			</output>
		</layer>
		<layer id="272" name="node_Conv_1570" type="Add" version="opset1">
			<data auto_broadcast="numpy" />
			<input>
				<port id="0" precision="FP32">
					<dim>-1</dim>
					<dim>64</dim>
					<dim>40</dim>
					<dim>40</dim>
				</port>
				<port id="1" precision="FP32">
					<dim>1</dim>
					<dim>64</dim>
					<dim>1</dim>
					<dim>1</dim>
				</port>
			</input>
			<output>
				<port id="2" precision="FP32" names="getitem_63">
					<dim>-1</dim>
					<dim>64</dim>
					<dim>40</dim>
					<dim>40</dim>
				</port>
			</output>
		</layer>
		<layer id="273" name="Reshape_621_compressed" type="Const" version="opset1">
			<data element_type="f16" shape="64, 1, 1, 5, 5" offset="295746" size="3200" />
			<output>
				<port id="0" precision="FP16">
					<dim>64</dim>
					<dim>1</dim>
					<dim>1</dim>
					<dim>5</dim>
					<dim>5</dim>
				</port>
			</output>
		</layer>
		<layer id="274" name="Reshape_621" type="Convert" version="opset1">
			<data destination_type="f32" />
			<rt_info>
				<attribute name="decompression" version="0" />
			</rt_info>
			<input>
				<port id="0" precision="FP16">
					<dim>64</dim>
					<dim>1</dim>
					<dim>1</dim>
					<dim>5</dim>
					<dim>5</dim>
				</port>
			</input>
			<output>
				<port id="1" precision="FP32">
					<dim>64</dim>
					<dim>1</dim>
					<dim>1</dim>
					<dim>5</dim>
					<dim>5</dim>
				</port>
			</output>
		</layer>
		<layer id="275" name="node_Conv_1572/WithoutBiases" type="GroupConvolution" version="opset1">
			<data strides="1, 1" pads_begin="2, 2" pads_end="2, 2" dilations="1, 1" auto_pad="explicit" />
			<input>
				<port id="0" precision="FP32">
					<dim>-1</dim>
					<dim>64</dim>
					<dim>40</dim>
					<dim>40</dim>
				</port>
				<port id="1" precision="FP32">
					<dim>64</dim>
					<dim>1</dim>
					<dim>1</dim>
					<dim>5</dim>
					<dim>5</dim>
				</port>
			</input>
			<output>
				<port id="2" precision="FP32">
					<dim>-1</dim>
					<dim>64</dim>
					<dim>40</dim>
					<dim>40</dim>
				</port>
			</output>
		</layer>
		<layer id="276" name="Reshape_671_compressed" type="Const" version="opset1">
			<data element_type="f16" shape="1, 64, 1, 1" offset="298946" size="128" />
			<output>
				<port id="0" precision="FP16">
					<dim>1</dim>
					<dim>64</dim>
					<dim>1</dim>
					<dim>1</dim>
				</port>
			</output>
		</layer>
		<layer id="277" name="Reshape_671" type="Convert" version="opset1">
			<data destination_type="f32" />
			<rt_info>
				<attribute name="decompression" version="0" />
			</rt_info>
			<input>
				<port id="0" precision="FP16">
					<dim>1</dim>
					<dim>64</dim>
					<dim>1</dim>
					<dim>1</dim>
				</port>
			</input>
			<output>
				<port id="1" precision="FP32">
					<dim>1</dim>
					<dim>64</dim>
					<dim>1</dim>
					<dim>1</dim>
				</port>
			</output>
		</layer>
		<layer id="278" name="node_Conv_1572" type="Add" version="opset1">
			<data auto_broadcast="numpy" />
			<input>
				<port id="0" precision="FP32">
					<dim>-1</dim>
					<dim>64</dim>
					<dim>40</dim>
					<dim>40</dim>
				</port>
				<port id="1" precision="FP32">
					<dim>1</dim>
					<dim>64</dim>
					<dim>1</dim>
					<dim>1</dim>
				</port>
			</input>
			<output>
				<port id="2" precision="FP32" names="getitem_66">
					<dim>-1</dim>
					<dim>64</dim>
					<dim>40</dim>
					<dim>40</dim>
				</port>
			</output>
		</layer>
		<layer id="279" name="node_relu_17" type="ReLU" version="opset1">
			<input>
				<port id="0" precision="FP32">
					<dim>-1</dim>
					<dim>64</dim>
					<dim>40</dim>
					<dim>40</dim>
				</port>
			</input>
			<output>
				<port id="1" precision="FP32" names="relu_17">
					<dim>-1</dim>
					<dim>64</dim>
					<dim>40</dim>
					<dim>40</dim>
				</port>
			</output>
		</layer>
		<layer id="280" name="node_mul_22" type="Multiply" version="opset1">
			<data auto_broadcast="numpy" />
			<input>
				<port id="0" precision="FP32">
					<dim>1</dim>
					<dim>1</dim>
					<dim>1</dim>
					<dim>1</dim>
				</port>
				<port id="1" precision="FP32">
					<dim>-1</dim>
					<dim>64</dim>
					<dim>40</dim>
					<dim>40</dim>
				</port>
			</input>
			<output>
				<port id="2" precision="FP32" names="mul_22">
					<dim>-1</dim>
					<dim>64</dim>
					<dim>40</dim>
					<dim>40</dim>
				</port>
			</output>
		</layer>
		<layer id="281" name="Constant_12887_compressed" type="Const" version="opset1">
			<data element_type="f16" shape="1, 1, 1, 1" offset="299074" size="2" />
			<output>
				<port id="0" precision="FP16">
					<dim>1</dim>
					<dim>1</dim>
					<dim>1</dim>
					<dim>1</dim>
				</port>
			</output>
		</layer>
		<layer id="282" name="Constant_12887" type="Convert" version="opset1">
			<data destination_type="f32" />
			<rt_info>
				<attribute name="decompression" version="0" />
			</rt_info>
			<input>
				<port id="0" precision="FP16">
					<dim>1</dim>
					<dim>1</dim>
					<dim>1</dim>
					<dim>1</dim>
				</port>
			</input>
			<output>
				<port id="1" precision="FP32">
					<dim>1</dim>
					<dim>1</dim>
					<dim>1</dim>
					<dim>1</dim>
				</port>
			</output>
		</layer>
		<layer id="283" name="node_add_22" type="Add" version="opset1">
			<data auto_broadcast="numpy" />
			<input>
				<port id="0" precision="FP32">
					<dim>-1</dim>
					<dim>64</dim>
					<dim>40</dim>
					<dim>40</dim>
				</port>
				<port id="1" precision="FP32">
					<dim>1</dim>
					<dim>1</dim>
					<dim>1</dim>
					<dim>1</dim>
				</port>
			</input>
			<output>
				<port id="2" precision="FP32" names="add_22">
					<dim>-1</dim>
					<dim>64</dim>
					<dim>40</dim>
					<dim>40</dim>
				</port>
			</output>
		</layer>
		<layer id="284" name="node_cat_3" type="Concat" version="opset1">
			<data axis="1" />
			<input>
				<port id="0" precision="FP32">
					<dim>-1</dim>
					<dim>256</dim>
					<dim>40</dim>
					<dim>40</dim>
				</port>
				<port id="1" precision="FP32">
					<dim>-1</dim>
					<dim>64</dim>
					<dim>40</dim>
					<dim>40</dim>
				</port>
				<port id="2" precision="FP32">
					<dim>-1</dim>
					<dim>64</dim>
					<dim>40</dim>
					<dim>40</dim>
				</port>
				<port id="3" precision="FP32">
					<dim>-1</dim>
					<dim>64</dim>
					<dim>40</dim>
					<dim>40</dim>
				</port>
			</input>
			<output>
				<port id="4" precision="FP32" names="cat_3">
					<dim>-1</dim>
					<dim>448</dim>
					<dim>40</dim>
					<dim>40</dim>
				</port>
			</output>
		</layer>
		<layer id="285" name="model.backbone.stages.2.blocks.0.aggregation.0.conv.weight_compressed" type="Const" version="opset1">
			<data element_type="f16" shape="256, 448, 1, 1" offset="299076" size="229376" />
			<output>
				<port id="0" precision="FP16" names="model.backbone.stages.2.blocks.0.aggregation.0.conv.weight">
					<dim>256</dim>
					<dim>448</dim>
					<dim>1</dim>
					<dim>1</dim>
				</port>
			</output>
		</layer>
		<layer id="286" name="model.backbone.stages.2.blocks.0.aggregation.0.conv.weight" type="Convert" version="opset1">
			<data destination_type="f32" />
			<rt_info>
				<attribute name="decompression" version="0" />
			</rt_info>
			<input>
				<port id="0" precision="FP16">
					<dim>256</dim>
					<dim>448</dim>
					<dim>1</dim>
					<dim>1</dim>
				</port>
			</input>
			<output>
				<port id="1" precision="FP32">
					<dim>256</dim>
					<dim>448</dim>
					<dim>1</dim>
					<dim>1</dim>
				</port>
			</output>
		</layer>
		<layer id="287" name="node_Conv_1574/WithoutBiases" type="Convolution" version="opset1">
			<data strides="1, 1" dilations="1, 1" pads_begin="0, 0" pads_end="0, 0" auto_pad="explicit" />
			<input>
				<port id="0" precision="FP32">
					<dim>-1</dim>
					<dim>448</dim>
					<dim>40</dim>
					<dim>40</dim>
				</port>
				<port id="1" precision="FP32">
					<dim>256</dim>
					<dim>448</dim>
					<dim>1</dim>
					<dim>1</dim>
				</port>
			</input>
			<output>
				<port id="2" precision="FP32">
					<dim>-1</dim>
					<dim>256</dim>
					<dim>40</dim>
					<dim>40</dim>
				</port>
			</output>
		</layer>
		<layer id="288" name="Reshape_692_compressed" type="Const" version="opset1">
			<data element_type="f16" shape="1, 256, 1, 1" offset="528452" size="512" />
			<output>
				<port id="0" precision="FP16">
					<dim>1</dim>
					<dim>256</dim>
					<dim>1</dim>
					<dim>1</dim>
				</port>
			</output>
		</layer>
		<layer id="289" name="Reshape_692" type="Convert" version="opset1">
			<data destination_type="f32" />
			<rt_info>
				<attribute name="decompression" version="0" />
			</rt_info>
			<input>
				<port id="0" precision="FP16">
					<dim>1</dim>
					<dim>256</dim>
					<dim>1</dim>
					<dim>1</dim>
				</port>
			</input>
			<output>
				<port id="1" precision="FP32">
					<dim>1</dim>
					<dim>256</dim>
					<dim>1</dim>
					<dim>1</dim>
				</port>
			</output>
		</layer>
		<layer id="290" name="node_Conv_1574" type="Add" version="opset1">
			<data auto_broadcast="numpy" />
			<input>
				<port id="0" precision="FP32">
					<dim>-1</dim>
					<dim>256</dim>
					<dim>40</dim>
					<dim>40</dim>
				</port>
				<port id="1" precision="FP32">
					<dim>1</dim>
					<dim>256</dim>
					<dim>1</dim>
					<dim>1</dim>
				</port>
			</input>
			<output>
				<port id="2" precision="FP32" names="getitem_69">
					<dim>-1</dim>
					<dim>256</dim>
					<dim>40</dim>
					<dim>40</dim>
				</port>
			</output>
		</layer>
		<layer id="291" name="node_relu_18" type="ReLU" version="opset1">
			<input>
				<port id="0" precision="FP32">
					<dim>-1</dim>
					<dim>256</dim>
					<dim>40</dim>
					<dim>40</dim>
				</port>
			</input>
			<output>
				<port id="1" precision="FP32" names="relu_18">
					<dim>-1</dim>
					<dim>256</dim>
					<dim>40</dim>
					<dim>40</dim>
				</port>
			</output>
		</layer>
		<layer id="292" name="node_mul_23" type="Multiply" version="opset1">
			<data auto_broadcast="numpy" />
			<input>
				<port id="0" precision="FP32">
					<dim>1</dim>
					<dim>1</dim>
					<dim>1</dim>
					<dim>1</dim>
				</port>
				<port id="1" precision="FP32">
					<dim>-1</dim>
					<dim>256</dim>
					<dim>40</dim>
					<dim>40</dim>
				</port>
			</input>
			<output>
				<port id="2" precision="FP32" names="mul_23">
					<dim>-1</dim>
					<dim>256</dim>
					<dim>40</dim>
					<dim>40</dim>
				</port>
			</output>
		</layer>
		<layer id="293" name="Constant_12889_compressed" type="Const" version="opset1">
			<data element_type="f16" shape="1, 1, 1, 1" offset="528964" size="2" />
			<output>
				<port id="0" precision="FP16">
					<dim>1</dim>
					<dim>1</dim>
					<dim>1</dim>
					<dim>1</dim>
				</port>
			</output>
		</layer>
		<layer id="294" name="Constant_12889" type="Convert" version="opset1">
			<data destination_type="f32" />
			<rt_info>
				<attribute name="decompression" version="0" />
			</rt_info>
			<input>
				<port id="0" precision="FP16">
					<dim>1</dim>
					<dim>1</dim>
					<dim>1</dim>
					<dim>1</dim>
				</port>
			</input>
			<output>
				<port id="1" precision="FP32">
					<dim>1</dim>
					<dim>1</dim>
					<dim>1</dim>
					<dim>1</dim>
				</port>
			</output>
		</layer>
		<layer id="295" name="node_add_23" type="Add" version="opset1">
			<data auto_broadcast="numpy" />
			<input>
				<port id="0" precision="FP32">
					<dim>-1</dim>
					<dim>256</dim>
					<dim>40</dim>
					<dim>40</dim>
				</port>
				<port id="1" precision="FP32">
					<dim>1</dim>
					<dim>1</dim>
					<dim>1</dim>
					<dim>1</dim>
				</port>
			</input>
			<output>
				<port id="2" precision="FP32" names="add_23">
					<dim>-1</dim>
					<dim>256</dim>
					<dim>40</dim>
					<dim>40</dim>
				</port>
			</output>
		</layer>
		<layer id="296" name="model.backbone.stages.2.blocks.0.aggregation.1.conv.weight_compressed" type="Const" version="opset1">
			<data element_type="f16" shape="512, 256, 1, 1" offset="528966" size="262144" />
			<output>
				<port id="0" precision="FP16" names="model.backbone.stages.2.blocks.0.aggregation.1.conv.weight">
					<dim>512</dim>
					<dim>256</dim>
					<dim>1</dim>
					<dim>1</dim>
				</port>
			</output>
		</layer>
		<layer id="297" name="model.backbone.stages.2.blocks.0.aggregation.1.conv.weight" type="Convert" version="opset1">
			<data destination_type="f32" />
			<rt_info>
				<attribute name="decompression" version="0" />
			</rt_info>
			<input>
				<port id="0" precision="FP16">
					<dim>512</dim>
					<dim>256</dim>
					<dim>1</dim>
					<dim>1</dim>
				</port>
			</input>
			<output>
				<port id="1" precision="FP32">
					<dim>512</dim>
					<dim>256</dim>
					<dim>1</dim>
					<dim>1</dim>
				</port>
			</output>
		</layer>
		<layer id="298" name="node_Conv_1576/WithoutBiases" type="Convolution" version="opset1">
			<data strides="1, 1" dilations="1, 1" pads_begin="0, 0" pads_end="0, 0" auto_pad="explicit" />
			<input>
				<port id="0" precision="FP32">
					<dim>-1</dim>
					<dim>256</dim>
					<dim>40</dim>
					<dim>40</dim>
				</port>
				<port id="1" precision="FP32">
					<dim>512</dim>
					<dim>256</dim>
					<dim>1</dim>
					<dim>1</dim>
				</port>
			</input>
			<output>
				<port id="2" precision="FP32">
					<dim>-1</dim>
					<dim>512</dim>
					<dim>40</dim>
					<dim>40</dim>
				</port>
			</output>
		</layer>
		<layer id="299" name="Reshape_712_compressed" type="Const" version="opset1">
			<data element_type="f16" shape="1, 512, 1, 1" offset="791110" size="1024" />
			<output>
				<port id="0" precision="FP16">
					<dim>1</dim>
					<dim>512</dim>
					<dim>1</dim>
					<dim>1</dim>
				</port>
			</output>
		</layer>
		<layer id="300" name="Reshape_712" type="Convert" version="opset1">
			<data destination_type="f32" />
			<rt_info>
				<attribute name="decompression" version="0" />
			</rt_info>
			<input>
				<port id="0" precision="FP16">
					<dim>1</dim>
					<dim>512</dim>
					<dim>1</dim>
					<dim>1</dim>
				</port>
			</input>
			<output>
				<port id="1" precision="FP32">
					<dim>1</dim>
					<dim>512</dim>
					<dim>1</dim>
					<dim>1</dim>
				</port>
			</output>
		</layer>
		<layer id="301" name="node_Conv_1576" type="Add" version="opset1">
			<data auto_broadcast="numpy" />
			<input>
				<port id="0" precision="FP32">
					<dim>-1</dim>
					<dim>512</dim>
					<dim>40</dim>
					<dim>40</dim>
				</port>
				<port id="1" precision="FP32">
					<dim>1</dim>
					<dim>512</dim>
					<dim>1</dim>
					<dim>1</dim>
				</port>
			</input>
			<output>
				<port id="2" precision="FP32" names="getitem_72">
					<dim>-1</dim>
					<dim>512</dim>
					<dim>40</dim>
					<dim>40</dim>
				</port>
			</output>
		</layer>
		<layer id="302" name="node_relu_19" type="ReLU" version="opset1">
			<input>
				<port id="0" precision="FP32">
					<dim>-1</dim>
					<dim>512</dim>
					<dim>40</dim>
					<dim>40</dim>
				</port>
			</input>
			<output>
				<port id="1" precision="FP32" names="relu_19">
					<dim>-1</dim>
					<dim>512</dim>
					<dim>40</dim>
					<dim>40</dim>
				</port>
			</output>
		</layer>
		<layer id="303" name="node_mul_24" type="Multiply" version="opset1">
			<data auto_broadcast="numpy" />
			<input>
				<port id="0" precision="FP32">
					<dim>1</dim>
					<dim>1</dim>
					<dim>1</dim>
					<dim>1</dim>
				</port>
				<port id="1" precision="FP32">
					<dim>-1</dim>
					<dim>512</dim>
					<dim>40</dim>
					<dim>40</dim>
				</port>
			</input>
			<output>
				<port id="2" precision="FP32" names="mul_24">
					<dim>-1</dim>
					<dim>512</dim>
					<dim>40</dim>
					<dim>40</dim>
				</port>
			</output>
		</layer>
		<layer id="304" name="Constant_12891_compressed" type="Const" version="opset1">
			<data element_type="f16" shape="1, 1, 1, 1" offset="792134" size="2" />
			<output>
				<port id="0" precision="FP16">
					<dim>1</dim>
					<dim>1</dim>
					<dim>1</dim>
					<dim>1</dim>
				</port>
			</output>
		</layer>
		<layer id="305" name="Constant_12891" type="Convert" version="opset1">
			<data destination_type="f32" />
			<rt_info>
				<attribute name="decompression" version="0" />
			</rt_info>
			<input>
				<port id="0" precision="FP16">
					<dim>1</dim>
					<dim>1</dim>
					<dim>1</dim>
					<dim>1</dim>
				</port>
			</input>
			<output>
				<port id="1" precision="FP32">
					<dim>1</dim>
					<dim>1</dim>
					<dim>1</dim>
					<dim>1</dim>
				</port>
			</output>
		</layer>
		<layer id="306" name="node_add_24" type="Add" version="opset1">
			<data auto_broadcast="numpy" />
			<input>
				<port id="0" precision="FP32">
					<dim>-1</dim>
					<dim>512</dim>
					<dim>40</dim>
					<dim>40</dim>
				</port>
				<port id="1" precision="FP32">
					<dim>1</dim>
					<dim>1</dim>
					<dim>1</dim>
					<dim>1</dim>
				</port>
			</input>
			<output>
				<port id="2" precision="FP32" names="add_24">
					<dim>-1</dim>
					<dim>512</dim>
					<dim>40</dim>
					<dim>40</dim>
				</port>
			</output>
		</layer>
		<layer id="307" name="Constant_12892_compressed" type="Const" version="opset1">
			<data element_type="f16" shape="1, 1, 1, 1" offset="792136" size="2" />
			<output>
				<port id="0" precision="FP16">
					<dim>1</dim>
					<dim>1</dim>
					<dim>1</dim>
					<dim>1</dim>
				</port>
			</output>
		</layer>
		<layer id="308" name="Constant_12892" type="Convert" version="opset1">
			<data destination_type="f32" />
			<rt_info>
				<attribute name="decompression" version="0" />
			</rt_info>
			<input>
				<port id="0" precision="FP16">
					<dim>1</dim>
					<dim>1</dim>
					<dim>1</dim>
					<dim>1</dim>
				</port>
			</input>
			<output>
				<port id="1" precision="FP32">
					<dim>1</dim>
					<dim>1</dim>
					<dim>1</dim>
					<dim>1</dim>
				</port>
			</output>
		</layer>
		<layer id="309" name="model.backbone.stages.2.blocks.1.layers.0.conv1.conv.weight_compressed" type="Const" version="opset1">
			<data element_type="f16" shape="64, 512, 1, 1" offset="792138" size="65536" />
			<output>
				<port id="0" precision="FP16" names="model.backbone.stages.2.blocks.1.layers.0.conv1.conv.weight">
					<dim>64</dim>
					<dim>512</dim>
					<dim>1</dim>
					<dim>1</dim>
				</port>
			</output>
		</layer>
		<layer id="310" name="model.backbone.stages.2.blocks.1.layers.0.conv1.conv.weight" type="Convert" version="opset1">
			<data destination_type="f32" />
			<rt_info>
				<attribute name="decompression" version="0" />
			</rt_info>
			<input>
				<port id="0" precision="FP16">
					<dim>64</dim>
					<dim>512</dim>
					<dim>1</dim>
					<dim>1</dim>
				</port>
			</input>
			<output>
				<port id="1" precision="FP32">
					<dim>64</dim>
					<dim>512</dim>
					<dim>1</dim>
					<dim>1</dim>
				</port>
			</output>
		</layer>
		<layer id="311" name="node_Conv_1578/WithoutBiases" type="Convolution" version="opset1">
			<data strides="1, 1" dilations="1, 1" pads_begin="0, 0" pads_end="0, 0" auto_pad="explicit" />
			<input>
				<port id="0" precision="FP32">
					<dim>-1</dim>
					<dim>512</dim>
					<dim>40</dim>
					<dim>40</dim>
				</port>
				<port id="1" precision="FP32">
					<dim>64</dim>
					<dim>512</dim>
					<dim>1</dim>
					<dim>1</dim>
				</port>
			</input>
			<output>
				<port id="2" precision="FP32">
					<dim>-1</dim>
					<dim>64</dim>
					<dim>40</dim>
					<dim>40</dim>
				</port>
			</output>
		</layer>
		<layer id="312" name="Reshape_732_compressed" type="Const" version="opset1">
			<data element_type="f16" shape="1, 64, 1, 1" offset="857674" size="128" />
			<output>
				<port id="0" precision="FP16">
					<dim>1</dim>
					<dim>64</dim>
					<dim>1</dim>
					<dim>1</dim>
				</port>
			</output>
		</layer>
		<layer id="313" name="Reshape_732" type="Convert" version="opset1">
			<data destination_type="f32" />
			<rt_info>
				<attribute name="decompression" version="0" />
			</rt_info>
			<input>
				<port id="0" precision="FP16">
					<dim>1</dim>
					<dim>64</dim>
					<dim>1</dim>
					<dim>1</dim>
				</port>
			</input>
			<output>
				<port id="1" precision="FP32">
					<dim>1</dim>
					<dim>64</dim>
					<dim>1</dim>
					<dim>1</dim>
				</port>
			</output>
		</layer>
		<layer id="314" name="node_Conv_1578" type="Add" version="opset1">
			<data auto_broadcast="numpy" />
			<input>
				<port id="0" precision="FP32">
					<dim>-1</dim>
					<dim>64</dim>
					<dim>40</dim>
					<dim>40</dim>
				</port>
				<port id="1" precision="FP32">
					<dim>1</dim>
					<dim>64</dim>
					<dim>1</dim>
					<dim>1</dim>
				</port>
			</input>
			<output>
				<port id="2" precision="FP32" names="getitem_75">
					<dim>-1</dim>
					<dim>64</dim>
					<dim>40</dim>
					<dim>40</dim>
				</port>
			</output>
		</layer>
		<layer id="315" name="Reshape_743_compressed" type="Const" version="opset1">
			<data element_type="f16" shape="64, 1, 1, 5, 5" offset="857802" size="3200" />
			<output>
				<port id="0" precision="FP16">
					<dim>64</dim>
					<dim>1</dim>
					<dim>1</dim>
					<dim>5</dim>
					<dim>5</dim>
				</port>
			</output>
		</layer>
		<layer id="316" name="Reshape_743" type="Convert" version="opset1">
			<data destination_type="f32" />
			<rt_info>
				<attribute name="decompression" version="0" />
			</rt_info>
			<input>
				<port id="0" precision="FP16">
					<dim>64</dim>
					<dim>1</dim>
					<dim>1</dim>
					<dim>5</dim>
					<dim>5</dim>
				</port>
			</input>
			<output>
				<port id="1" precision="FP32">
					<dim>64</dim>
					<dim>1</dim>
					<dim>1</dim>
					<dim>5</dim>
					<dim>5</dim>
				</port>
			</output>
		</layer>
		<layer id="317" name="node_Conv_1580/WithoutBiases" type="GroupConvolution" version="opset1">
			<data strides="1, 1" pads_begin="2, 2" pads_end="2, 2" dilations="1, 1" auto_pad="explicit" />
			<input>
				<port id="0" precision="FP32">
					<dim>-1</dim>
					<dim>64</dim>
					<dim>40</dim>
					<dim>40</dim>
				</port>
				<port id="1" precision="FP32">
					<dim>64</dim>
					<dim>1</dim>
					<dim>1</dim>
					<dim>5</dim>
					<dim>5</dim>
				</port>
			</input>
			<output>
				<port id="2" precision="FP32">
					<dim>-1</dim>
					<dim>64</dim>
					<dim>40</dim>
					<dim>40</dim>
				</port>
			</output>
		</layer>
		<layer id="318" name="Reshape_793_compressed" type="Const" version="opset1">
			<data element_type="f16" shape="1, 64, 1, 1" offset="861002" size="128" />
			<output>
				<port id="0" precision="FP16">
					<dim>1</dim>
					<dim>64</dim>
					<dim>1</dim>
					<dim>1</dim>
				</port>
			</output>
		</layer>
		<layer id="319" name="Reshape_793" type="Convert" version="opset1">
			<data destination_type="f32" />
			<rt_info>
				<attribute name="decompression" version="0" />
			</rt_info>
			<input>
				<port id="0" precision="FP16">
					<dim>1</dim>
					<dim>64</dim>
					<dim>1</dim>
					<dim>1</dim>
				</port>
			</input>
			<output>
				<port id="1" precision="FP32">
					<dim>1</dim>
					<dim>64</dim>
					<dim>1</dim>
					<dim>1</dim>
				</port>
			</output>
		</layer>
		<layer id="320" name="node_Conv_1580" type="Add" version="opset1">
			<data auto_broadcast="numpy" />
			<input>
				<port id="0" precision="FP32">
					<dim>-1</dim>
					<dim>64</dim>
					<dim>40</dim>
					<dim>40</dim>
				</port>
				<port id="1" precision="FP32">
					<dim>1</dim>
					<dim>64</dim>
					<dim>1</dim>
					<dim>1</dim>
				</port>
			</input>
			<output>
				<port id="2" precision="FP32" names="getitem_78">
					<dim>-1</dim>
					<dim>64</dim>
					<dim>40</dim>
					<dim>40</dim>
				</port>
			</output>
		</layer>
		<layer id="321" name="node_relu_20" type="ReLU" version="opset1">
			<input>
				<port id="0" precision="FP32">
					<dim>-1</dim>
					<dim>64</dim>
					<dim>40</dim>
					<dim>40</dim>
				</port>
			</input>
			<output>
				<port id="1" precision="FP32" names="relu_20">
					<dim>-1</dim>
					<dim>64</dim>
					<dim>40</dim>
					<dim>40</dim>
				</port>
			</output>
		</layer>
		<layer id="322" name="node_mul_25" type="Multiply" version="opset1">
			<data auto_broadcast="numpy" />
			<input>
				<port id="0" precision="FP32">
					<dim>1</dim>
					<dim>1</dim>
					<dim>1</dim>
					<dim>1</dim>
				</port>
				<port id="1" precision="FP32">
					<dim>-1</dim>
					<dim>64</dim>
					<dim>40</dim>
					<dim>40</dim>
				</port>
			</input>
			<output>
				<port id="2" precision="FP32" names="mul_25">
					<dim>-1</dim>
					<dim>64</dim>
					<dim>40</dim>
					<dim>40</dim>
				</port>
			</output>
		</layer>
		<layer id="323" name="Constant_12893_compressed" type="Const" version="opset1">
			<data element_type="f16" shape="1, 1, 1, 1" offset="861130" size="2" />
			<output>
				<port id="0" precision="FP16">
					<dim>1</dim>
					<dim>1</dim>
					<dim>1</dim>
					<dim>1</dim>
				</port>
			</output>
		</layer>
		<layer id="324" name="Constant_12893" type="Convert" version="opset1">
			<data destination_type="f32" />
			<rt_info>
				<attribute name="decompression" version="0" />
			</rt_info>
			<input>
				<port id="0" precision="FP16">
					<dim>1</dim>
					<dim>1</dim>
					<dim>1</dim>
					<dim>1</dim>
				</port>
			</input>
			<output>
				<port id="1" precision="FP32">
					<dim>1</dim>
					<dim>1</dim>
					<dim>1</dim>
					<dim>1</dim>
				</port>
…
		<edge from-layer="1315" from-port="0" to-layer="1866" to-port="2" />
		<edge from-layer="1315" from-port="0" to-layer="1317" to-port="2" />
		<edge from-layer="1315" from-port="0" to-layer="1889" to-port="2" />
		<edge from-layer="1315" from-port="0" to-layer="1577" to-port="2" />
		<edge from-layer="1315" from-port="0" to-layer="1328" to-port="1" />
		<edge from-layer="1316" from-port="0" to-layer="1889" to-port="3" />
		<edge from-layer="1316" from-port="0" to-layer="1866" to-port="3" />
		<edge from-layer="1316" from-port="0" to-layer="1577" to-port="3" />
		<edge from-layer="1316" from-port="0" to-layer="1317" to-port="3" />
		<edge from-layer="1317" from-port="5" to-layer="1318" to-port="0" />
		<edge from-layer="1318" from-port="2" to-layer="1335" to-port="0" />
		<edge from-layer="1318" from-port="2" to-layer="1319" to-port="1" />
		<edge from-layer="1319" from-port="2" to-layer="1322" to-port="0" />
		<edge from-layer="1320" from-port="0" to-layer="1321" to-port="0" />
		<edge from-layer="1321" from-port="1" to-layer="1322" to-port="1" />
		<edge from-layer="1322" from-port="2" to-layer="1323" to-port="0" />
		<edge from-layer="1323" from-port="2" to-layer="1339" to-port="0" />
		<edge from-layer="1324" from-port="0" to-layer="1896" to-port="3" />
		<edge from-layer="1324" from-port="0" to-layer="1873" to-port="3" />
		<edge from-layer="1324" from-port="0" to-layer="1584" to-port="3" />
		<edge from-layer="1324" from-port="0" to-layer="1325" to-port="3" />
		<edge from-layer="1325" from-port="5" to-layer="1326" to-port="0" />
		<edge from-layer="1326" from-port="2" to-layer="1337" to-port="1" />
		<edge from-layer="1326" from-port="2" to-layer="1330" to-port="0" />
		<edge from-layer="1327" from-port="0" to-layer="1586" to-port="3" />
		<edge from-layer="1327" from-port="0" to-layer="1328" to-port="3" />
		<edge from-layer="1327" from-port="0" to-layer="1875" to-port="3" />
		<edge from-layer="1327" from-port="0" to-layer="1898" to-port="3" />
		<edge from-layer="1328" from-port="5" to-layer="1329" to-port="0" />
		<edge from-layer="1329" from-port="2" to-layer="1337" to-port="0" />
		<edge from-layer="1329" from-port="2" to-layer="1330" to-port="1" />
		<edge from-layer="1330" from-port="2" to-layer="1333" to-port="0" />
		<edge from-layer="1331" from-port="0" to-layer="1332" to-port="0" />
		<edge from-layer="1332" from-port="1" to-layer="1333" to-port="1" />
		<edge from-layer="1333" from-port="2" to-layer="1334" to-port="0" />
		<edge from-layer="1334" from-port="2" to-layer="1339" to-port="1" />
		<edge from-layer="1335" from-port="2" to-layer="1336" to-port="0" />
		<edge from-layer="1336" from-port="2" to-layer="1339" to-port="2" />
		<edge from-layer="1337" from-port="2" to-layer="1338" to-port="0" />
		<edge from-layer="1338" from-port="2" to-layer="1339" to-port="3" />
		<edge from-layer="1339" from-port="4" to-layer="1418" to-port="0" />
		<edge from-layer="1339" from-port="4" to-layer="1342" to-port="0" />
		<edge from-layer="1340" from-port="0" to-layer="1341" to-port="0" />
		<edge from-layer="1341" from-port="1" to-layer="1342" to-port="1" />
		<edge from-layer="1342" from-port="2" to-layer="1345" to-port="0" />
		<edge from-layer="1343" from-port="0" to-layer="1344" to-port="0" />
		<edge from-layer="1344" from-port="1" to-layer="1345" to-port="1" />
		<edge from-layer="1345" from-port="2" to-layer="1346" to-port="0" />
		<edge from-layer="1346" from-port="1" to-layer="1349" to-port="0" />
		<edge from-layer="1347" from-port="0" to-layer="1348" to-port="0" />
		<edge from-layer="1348" from-port="1" to-layer="1349" to-port="1" />
		<edge from-layer="1349" from-port="2" to-layer="1352" to-port="0" />
		<edge from-layer="1350" from-port="0" to-layer="1351" to-port="0" />
		<edge from-layer="1351" from-port="1" to-layer="1352" to-port="1" />
		<edge from-layer="1352" from-port="2" to-layer="1353" to-port="0" />
		<edge from-layer="1353" from-port="1" to-layer="1420" to-port="1" />
		<edge from-layer="1353" from-port="1" to-layer="1354" to-port="1" />
		<edge from-layer="1354" from-port="2" to-layer="1356" to-port="0" />
		<edge from-layer="1355" from-port="0" to-layer="1356" to-port="1" />
		<edge from-layer="1356" from-port="2" to-layer="1372" to-port="0" />
		<edge from-layer="1356" from-port="2" to-layer="1359" to-port="0" />
		<edge from-layer="1357" from-port="0" to-layer="1358" to-port="0" />
		<edge from-layer="1358" from-port="1" to-layer="1359" to-port="1" />
		<edge from-layer="1359" from-port="2" to-layer="1362" to-port="0" />
		<edge from-layer="1360" from-port="0" to-layer="1361" to-port="0" />
		<edge from-layer="1361" from-port="1" to-layer="1362" to-port="1" />
		<edge from-layer="1362" from-port="2" to-layer="1364" to-port="0" />
		<edge from-layer="1363" from-port="0" to-layer="1633" to-port="1" />
		<edge from-layer="1363" from-port="0" to-layer="1364" to-port="1" />
		<edge from-layer="1363" from-port="0" to-layer="1646" to-port="1" />
		<edge from-layer="1363" from-port="0" to-layer="1621" to-port="1" />
		<edge from-layer="1363" from-port="0" to-layer="1389" to-port="1" />
		<edge from-layer="1363" from-port="0" to-layer="1376" to-port="1" />
		<edge from-layer="1364" from-port="2" to-layer="1366" to-port="0" />
		<edge from-layer="1365" from-port="0" to-layer="1366" to-port="1" />
		<edge from-layer="1366" from-port="2" to-layer="1369" to-port="0" />
		<edge from-layer="1367" from-port="0" to-layer="1368" to-port="0" />
		<edge from-layer="1368" from-port="1" to-layer="1369" to-port="1" />
		<edge from-layer="1369" from-port="2" to-layer="1396" to-port="0" />
		<edge from-layer="1370" from-port="0" to-layer="1371" to-port="0" />
		<edge from-layer="1371" from-port="1" to-layer="1372" to-port="1" />
		<edge from-layer="1372" from-port="2" to-layer="1375" to-port="0" />
		<edge from-layer="1373" from-port="0" to-layer="1374" to-port="0" />
		<edge from-layer="1374" from-port="1" to-layer="1375" to-port="1" />
		<edge from-layer="1375" from-port="2" to-layer="1376" to-port="0" />
		<edge from-layer="1376" from-port="2" to-layer="1378" to-port="0" />
		<edge from-layer="1377" from-port="0" to-layer="1378" to-port="1" />
		<edge from-layer="1378" from-port="2" to-layer="1380" to-port="0" />
		<edge from-layer="1379" from-port="0" to-layer="1380" to-port="1" />
		<edge from-layer="1380" from-port="2" to-layer="1396" to-port="1" />
		<edge from-layer="1381" from-port="0" to-layer="1382" to-port="1" />
		<edge from-layer="1382" from-port="2" to-layer="1385" to-port="0" />
		<edge from-layer="1383" from-port="0" to-layer="1384" to-port="0" />
		<edge from-layer="1384" from-port="1" to-layer="1385" to-port="1" />
		<edge from-layer="1385" from-port="2" to-layer="1388" to-port="0" />
		<edge from-layer="1386" from-port="0" to-layer="1387" to-port="0" />
		<edge from-layer="1387" from-port="1" to-layer="1388" to-port="1" />
		<edge from-layer="1388" from-port="2" to-layer="1389" to-port="0" />
		<edge from-layer="1389" from-port="2" to-layer="1391" to-port="0" />
		<edge from-layer="1390" from-port="0" to-layer="1391" to-port="1" />
		<edge from-layer="1391" from-port="2" to-layer="1396" to-port="2" />
		<edge from-layer="1392" from-port="0" to-layer="1393" to-port="0" />
		<edge from-layer="1393" from-port="1" to-layer="1396" to-port="3" />
		<edge from-layer="1394" from-port="0" to-layer="1395" to-port="0" />
		<edge from-layer="1395" from-port="1" to-layer="1396" to-port="4" />
		<edge from-layer="1396" from-port="5" to-layer="1398" to-port="0" />
		<edge from-layer="1397" from-port="0" to-layer="1398" to-port="1" />
		<edge from-layer="1398" from-port="2" to-layer="1400" to-port="0" />
		<edge from-layer="1399" from-port="0" to-layer="1400" to-port="1" />
		<edge from-layer="1400" from-port="2" to-layer="1403" to-port="0" />
		<edge from-layer="1401" from-port="0" to-layer="1402" to-port="0" />
		<edge from-layer="1402" from-port="1" to-layer="1403" to-port="1" />
		<edge from-layer="1403" from-port="2" to-layer="1406" to-port="0" />
		<edge from-layer="1404" from-port="0" to-layer="1405" to-port="0" />
		<edge from-layer="1405" from-port="1" to-layer="1406" to-port="1" />
		<edge from-layer="1406" from-port="2" to-layer="1408" to-port="0" />
		<edge from-layer="1407" from-port="0" to-layer="1408" to-port="1" />
		<edge from-layer="1408" from-port="2" to-layer="1409" to-port="1" />
		<edge from-layer="1409" from-port="2" to-layer="1411" to-port="0" />
		<edge from-layer="1410" from-port="0" to-layer="1411" to-port="1" />
		<edge from-layer="1411" from-port="2" to-layer="1414" to-port="0" />
		<edge from-layer="1412" from-port="0" to-layer="1413" to-port="0" />
		<edge from-layer="1413" from-port="1" to-layer="1414" to-port="1" />
		<edge from-layer="1414" from-port="2" to-layer="1417" to-port="0" />
		<edge from-layer="1415" from-port="0" to-layer="1416" to-port="0" />
		<edge from-layer="1416" from-port="1" to-layer="1417" to-port="1" />
		<edge from-layer="1417" from-port="2" to-layer="1480" to-port="1" />
		<edge from-layer="1417" from-port="2" to-layer="1420" to-port="0" />
		<edge from-layer="1417" from-port="2" to-layer="1470" to-port="0" />
		<edge from-layer="1418" from-port="2" to-layer="1419" to-port="0" />
		<edge from-layer="1418" from-port="2" to-layer="1432" to-port="0" />
		<edge from-layer="1419" from-port="5" to-layer="1437" to-port="0" />
		<edge from-layer="1420" from-port="2" to-layer="1423" to-port="0" />
		<edge from-layer="1420" from-port="2" to-layer="1455" to-port="0" />
		<edge from-layer="1421" from-port="0" to-layer="1422" to-port="0" />
		<edge from-layer="1422" from-port="1" to-layer="1423" to-port="1" />
		<edge from-layer="1423" from-port="2" to-layer="1426" to-port="0" />
		<edge from-layer="1424" from-port="0" to-layer="1425" to-port="0" />
		<edge from-layer="1425" from-port="1" to-layer="1426" to-port="1" />
		<edge from-layer="1426" from-port="2" to-layer="1428" to-port="0" />
		<edge from-layer="1427" from-port="0" to-layer="1428" to-port="1" />
		<edge from-layer="1427" from-port="0" to-layer="1684" to-port="1" />
		<edge from-layer="1428" from-port="2" to-layer="1431" to-port="0" />
		<edge from-layer="1429" from-port="0" to-layer="1430" to-port="0" />
		<edge from-layer="1430" from-port="1" to-layer="1431" to-port="1" />
		<edge from-layer="1431" from-port="2" to-layer="1433" to-port="0" />
		<edge from-layer="1432" from-port="5" to-layer="1433" to-port="1" />
		<edge from-layer="1433" from-port="2" to-layer="1436" to-port="0" />
		<edge from-layer="1434" from-port="0" to-layer="1435" to-port="0" />
		<edge from-layer="1435" from-port="1" to-layer="1436" to-port="1" />
		<edge from-layer="1436" from-port="2" to-layer="1437" to-port="1" />
		<edge from-layer="1437" from-port="2" to-layer="1440" to-port="0" />
		<edge from-layer="1438" from-port="0" to-layer="1439" to-port="0" />
		<edge from-layer="1439" from-port="1" to-layer="1440" to-port="1" />
		<edge from-layer="1440" from-port="2" to-layer="1443" to-port="0" />
		<edge from-layer="1441" from-port="0" to-layer="1442" to-port="0" />
		<edge from-layer="1442" from-port="1" to-layer="1443" to-port="1" />
		<edge from-layer="1443" from-port="2" to-layer="1445" to-port="0" />
		<edge from-layer="1444" from-port="0" to-layer="1445" to-port="1" />
		<edge from-layer="1445" from-port="2" to-layer="1446" to-port="0" />
		<edge from-layer="1446" from-port="2" to-layer="1448" to-port="0" />
		<edge from-layer="1447" from-port="0" to-layer="1448" to-port="1" />
		<edge from-layer="1448" from-port="3" to-layer="1449" to-port="1" />
		<edge from-layer="1448" from-port="4" to-layer="1450" to-port="1" />
		<edge from-layer="1448" from-port="5" to-layer="1451" to-port="1" />
		<edge from-layer="1449" from-port="2" to-layer="1452" to-port="0" />
		<edge from-layer="1450" from-port="2" to-layer="1452" to-port="1" />
		<edge from-layer="1451" from-port="2" to-layer="1452" to-port="2" />
		<edge from-layer="1452" from-port="3" to-layer="1465" to-port="0" />
		<edge from-layer="1453" from-port="0" to-layer="1454" to-port="0" />
		<edge from-layer="1454" from-port="1" to-layer="1455" to-port="1" />
		<edge from-layer="1455" from-port="2" to-layer="1458" to-port="0" />
		<edge from-layer="1456" from-port="0" to-layer="1457" to-port="0" />
		<edge from-layer="1457" from-port="1" to-layer="1458" to-port="1" />
		<edge from-layer="1458" from-port="2" to-layer="1460" to-port="0" />
		<edge from-layer="1459" from-port="0" to-layer="1715" to-port="1" />
		<edge from-layer="1459" from-port="0" to-layer="1460" to-port="1" />
		<edge from-layer="1460" from-port="2" to-layer="1461" to-port="0" />
		<edge from-layer="1461" from-port="1" to-layer="1463" to-port="0" />
		<edge from-layer="1462" from-port="0" to-layer="1463" to-port="1" />
		<edge from-layer="1463" from-port="2" to-layer="1464" to-port="0" />
		<edge from-layer="1464" from-port="2" to-layer="1465" to-port="1" />
		<edge from-layer="1465" from-port="2" to-layer="1466" to-port="0" />
		<edge from-layer="1466" from-port="2" to-layer="1467" to-port="0" />
		<edge from-layer="1467" from-port="2" to-layer="1469" to-port="0" />
		<edge from-layer="1468" from-port="0" to-layer="1469" to-port="1" />
		<edge from-layer="1469" from-port="2" to-layer="1470" to-port="1" />
		<edge from-layer="1469" from-port="2" to-layer="1481" to-port="1" />
		<edge from-layer="1470" from-port="2" to-layer="1473" to-port="0" />
		<edge from-layer="1471" from-port="0" to-layer="1472" to-port="0" />
		<edge from-layer="1472" from-port="1" to-layer="1473" to-port="1" />
		<edge from-layer="1473" from-port="2" to-layer="1476" to-port="0" />
		<edge from-layer="1474" from-port="0" to-layer="1475" to-port="0" />
		<edge from-layer="1475" from-port="1" to-layer="1476" to-port="1" />
		<edge from-layer="1476" from-port="2" to-layer="1477" to-port="0" />
		<edge from-layer="1477" from-port="1" to-layer="1479" to-port="0" />
		<edge from-layer="1478" from-port="0" to-layer="1479" to-port="1" />
		<edge from-layer="1479" from-port="3" to-layer="1481" to-port="0" />
		<edge from-layer="1479" from-port="2" to-layer="1480" to-port="0" />
		<edge from-layer="1480" from-port="2" to-layer="1482" to-port="0" />
		<edge from-layer="1481" from-port="2" to-layer="1482" to-port="1" />
		<edge from-layer="1482" from-port="2" to-layer="1484" to-port="0" />
		<edge from-layer="1483" from-port="0" to-layer="1484" to-port="1" />
		<edge from-layer="1484" from-port="2" to-layer="1487" to-port="0" />
		<edge from-layer="1485" from-port="0" to-layer="1486" to-port="0" />
		<edge from-layer="1486" from-port="1" to-layer="1487" to-port="1" />
		<edge from-layer="1487" from-port="2" to-layer="1490" to-port="0" />
		<edge from-layer="1488" from-port="0" to-layer="1489" to-port="0" />
		<edge from-layer="1489" from-port="1" to-layer="1490" to-port="1" />
		<edge from-layer="1490" from-port="2" to-layer="1504" to-port="0" />
		<edge from-layer="1490" from-port="2" to-layer="1493" to-port="0" />
		<edge from-layer="1491" from-port="0" to-layer="1492" to-port="0" />
		<edge from-layer="1492" from-port="1" to-layer="1493" to-port="1" />
		<edge from-layer="1493" from-port="2" to-layer="1496" to-port="0" />
		<edge from-layer="1494" from-port="0" to-layer="1495" to-port="0" />
		<edge from-layer="1495" from-port="1" to-layer="1496" to-port="1" />
		<edge from-layer="1496" from-port="2" to-layer="1497" to-port="0" />
		<edge from-layer="1497" from-port="1" to-layer="1500" to-port="0" />
		<edge from-layer="1498" from-port="0" to-layer="1499" to-port="0" />
		<edge from-layer="1499" from-port="1" to-layer="1500" to-port="1" />
		<edge from-layer="1500" from-port="2" to-layer="1503" to-port="0" />
		<edge from-layer="1501" from-port="0" to-layer="1502" to-port="0" />
		<edge from-layer="1502" from-port="1" to-layer="1503" to-port="1" />
		<edge from-layer="1503" from-port="2" to-layer="1504" to-port="1" />
		<edge from-layer="1504" from-port="2" to-layer="1505" to-port="0" />
		<edge from-layer="1505" from-port="1" to-layer="1507" to-port="0" />
		<edge from-layer="1506" from-port="0" to-layer="1507" to-port="1" />
		<edge from-layer="1507" from-port="2" to-layer="1510" to-port="0" />
		<edge from-layer="1508" from-port="0" to-layer="1509" to-port="0" />
		<edge from-layer="1509" from-port="1" to-layer="1510" to-port="1" />
		<edge from-layer="1510" from-port="2" to-layer="1513" to-port="0" />
		<edge from-layer="1511" from-port="0" to-layer="1512" to-port="0" />
		<edge from-layer="1512" from-port="1" to-layer="1513" to-port="1" />
		<edge from-layer="1513" from-port="2" to-layer="1775" to-port="1" />
		<edge from-layer="1513" from-port="2" to-layer="1612" to-port="0" />
		<edge from-layer="1513" from-port="2" to-layer="1639" to-port="0" />
		<edge from-layer="1513" from-port="2" to-layer="1666" to-port="0" />
		<edge from-layer="1513" from-port="2" to-layer="1516" to-port="0" />
		<edge from-layer="1514" from-port="0" to-layer="1515" to-port="0" />
		<edge from-layer="1515" from-port="1" to-layer="1546" to-port="0" />
		<edge from-layer="1516" from-port="2" to-layer="1519" to-port="0" />
		<edge from-layer="1517" from-port="0" to-layer="1518" to-port="0" />
		<edge from-layer="1518" from-port="1" to-layer="1519" to-port="1" />
		<edge from-layer="1519" from-port="2" to-layer="1522" to-port="0" />
		<edge from-layer="1520" from-port="0" to-layer="1521" to-port="0" />
		<edge from-layer="1521" from-port="1" to-layer="1522" to-port="1" />
		<edge from-layer="1522" from-port="2" to-layer="1523" to-port="0" />
		<edge from-layer="1523" from-port="1" to-layer="1526" to-port="0" />
		<edge from-layer="1524" from-port="0" to-layer="1525" to-port="0" />
		<edge from-layer="1525" from-port="1" to-layer="1526" to-port="1" />
		<edge from-layer="1526" from-port="2" to-layer="1529" to-port="0" />
		<edge from-layer="1527" from-port="0" to-layer="1528" to-port="0" />
		<edge from-layer="1528" from-port="1" to-layer="1529" to-port="1" />
		<edge from-layer="1529" from-port="2" to-layer="1530" to-port="0" />
		<edge from-layer="1530" from-port="1" to-layer="1533" to-port="0" />
		<edge from-layer="1531" from-port="0" to-layer="1532" to-port="0" />
		<edge from-layer="1532" from-port="1" to-layer="1533" to-port="1" />
		<edge from-layer="1533" from-port="2" to-layer="1536" to-port="0" />
		<edge from-layer="1534" from-port="0" to-layer="1535" to-port="0" />
		<edge from-layer="1535" from-port="1" to-layer="1536" to-port="1" />
		<edge from-layer="1536" from-port="2" to-layer="1537" to-port="0" />
		<edge from-layer="1537" from-port="2" to-layer="1796" to-port="1" />
		<edge from-layer="1537" from-port="2" to-layer="1538" to-port="0" />
		<edge from-layer="1538" from-port="2" to-layer="1539" to-port="0" />
		<edge from-layer="1539" from-port="1" to-layer="1542" to-port="0" />
		<edge from-layer="1540" from-port="0" to-layer="1541" to-port="0" />
		<edge from-layer="1541" from-port="1" to-layer="1542" to-port="1" />
		<edge from-layer="1542" from-port="2" to-layer="1543" to-port="0" />
		<edge from-layer="1543" from-port="2" to-layer="1553" to-port="0" />
		<edge from-layer="1543" from-port="2" to-layer="1545" to-port="0" />
		<edge from-layer="1543" from-port="2" to-layer="1561" to-port="0" />
		<edge from-layer="1543" from-port="2" to-layer="1569" to-port="0" />
		<edge from-layer="1544" from-port="0" to-layer="1545" to-port="2" />
		<edge from-layer="1545" from-port="3" to-layer="1546" to-port="1" />
		<edge from-layer="1546" from-port="2" to-layer="1547" to-port="0" />
		<edge from-layer="1547" from-port="2" to-layer="1548" to-port="1" />
		<edge from-layer="1548" from-port="2" to-layer="1549" to-port="0" />
		<edge from-layer="1549" from-port="2" to-layer="1574" to-port="0" />
		<edge from-layer="1550" from-port="0" to-layer="1551" to-port="0" />
		<edge from-layer="1551" from-port="1" to-layer="1554" to-port="0" />
		<edge from-layer="1552" from-port="0" to-layer="1553" to-port="2" />
		<edge from-layer="1553" from-port="3" to-layer="1554" to-port="1" />
		<edge from-layer="1554" from-port="2" to-layer="1555" to-port="0" />
		<edge from-layer="1555" from-port="2" to-layer="1556" to-port="1" />
		<edge from-layer="1556" from-port="2" to-layer="1557" to-port="0" />
		<edge from-layer="1557" from-port="2" to-layer="1574" to-port="1" />
		<edge from-layer="1558" from-port="0" to-layer="1559" to-port="0" />
		<edge from-layer="1559" from-port="1" to-layer="1562" to-port="0" />
		<edge from-layer="1560" from-port="0" to-layer="1561" to-port="2" />
		<edge from-layer="1561" from-port="3" to-layer="1562" to-port="1" />
		<edge from-layer="1562" from-port="2" to-layer="1563" to-port="0" />
		<edge from-layer="1563" from-port="2" to-layer="1564" to-port="1" />
		<edge from-layer="1564" from-port="2" to-layer="1565" to-port="0" />
		<edge from-layer="1565" from-port="2" to-layer="1574" to-port="2" />
		<edge from-layer="1566" from-port="0" to-layer="1567" to-port="0" />
		<edge from-layer="1567" from-port="1" to-layer="1570" to-port="0" />
		<edge from-layer="1568" from-port="0" to-layer="1569" to-port="2" />
		<edge from-layer="1569" from-port="3" to-layer="1570" to-port="1" />
		<edge from-layer="1570" from-port="2" to-layer="1571" to-port="0" />
		<edge from-layer="1571" from-port="2" to-layer="1572" to-port="1" />
		<edge from-layer="1572" from-port="2" to-layer="1573" to-port="0" />
		<edge from-layer="1573" from-port="2" to-layer="1574" to-port="3" />
		<edge from-layer="1574" from-port="4" to-layer="1586" to-port="0" />
		<edge from-layer="1574" from-port="4" to-layer="1584" to-port="0" />
		<edge from-layer="1574" from-port="4" to-layer="1575" to-port="0" />
		<edge from-layer="1574" from-port="4" to-layer="1577" to-port="0" />
		<edge from-layer="1575" from-port="5" to-layer="1576" to-port="0" />
		<edge from-layer="1576" from-port="2" to-layer="1593" to-port="1" />
		<edge from-layer="1576" from-port="2" to-layer="1579" to-port="0" />
		<edge from-layer="1577" from-port="5" to-layer="1578" to-port="0" />
		<edge from-layer="1578" from-port="2" to-layer="1593" to-port="0" />
		<edge from-layer="1578" from-port="2" to-layer="1579" to-port="1" />
		<edge from-layer="1579" from-port="2" to-layer="1582" to-port="0" />
		<edge from-layer="1580" from-port="0" to-layer="1581" to-port="0" />
		<edge from-layer="1581" from-port="1" to-layer="1582" to-port="1" />
		<edge from-layer="1582" from-port="2" to-layer="1583" to-port="0" />
		<edge from-layer="1583" from-port="2" to-layer="1597" to-port="0" />
		<edge from-layer="1584" from-port="5" to-layer="1585" to-port="0" />
		<edge from-layer="1585" from-port="2" to-layer="1588" to-port="0" />
		<edge from-layer="1585" from-port="2" to-layer="1595" to-port="1" />
		<edge from-layer="1586" from-port="5" to-layer="1587" to-port="0" />
		<edge from-layer="1587" from-port="2" to-layer="1595" to-port="0" />
		<edge from-layer="1587" from-port="2" to-layer="1588" to-port="1" />
		<edge from-layer="1588" from-port="2" to-layer="1591" to-port="0" />
		<edge from-layer="1589" from-port="0" to-layer="1590" to-port="0" />
		<edge from-layer="1590" from-port="1" to-layer="1591" to-port="1" />
		<edge from-layer="1591" from-port="2" to-layer="1592" to-port="0" />
		<edge from-layer="1592" from-port="2" to-layer="1597" to-port="1" />
		<edge from-layer="1593" from-port="2" to-layer="1594" to-port="0" />
		<edge from-layer="1594" from-port="2" to-layer="1597" to-port="2" />
		<edge from-layer="1595" from-port="2" to-layer="1596" to-port="0" />
		<edge from-layer="1596" from-port="2" to-layer="1597" to-port="3" />
		<edge from-layer="1597" from-port="4" to-layer="1675" to-port="0" />
		<edge from-layer="1597" from-port="4" to-layer="1600" to-port="0" />
		<edge from-layer="1598" from-port="0" to-layer="1599" to-port="0" />
		<edge from-layer="1599" from-port="1" to-layer="1600" to-port="1" />
		<edge from-layer="1600" from-port="2" to-layer="1603" to-port="0" />
		<edge from-layer="1601" from-port="0" to-layer="1602" to-port="0" />
		<edge from-layer="1602" from-port="1" to-layer="1603" to-port="1" />
		<edge from-layer="1603" from-port="2" to-layer="1604" to-port="0" />
		<edge from-layer="1604" from-port="1" to-layer="1607" to-port="0" />
		<edge from-layer="1605" from-port="0" to-layer="1606" to-port="0" />
		<edge from-layer="1606" from-port="1" to-layer="1607" to-port="1" />
		<edge from-layer="1607" from-port="2" to-layer="1610" to-port="0" />
		<edge from-layer="1608" from-port="0" to-layer="1609" to-port="0" />
		<edge from-layer="1609" from-port="1" to-layer="1610" to-port="1" />
		<edge from-layer="1610" from-port="2" to-layer="1611" to-port="0" />
		<edge from-layer="1611" from-port="1" to-layer="1612" to-port="1" />
		<edge from-layer="1611" from-port="1" to-layer="1677" to-port="1" />
		<edge from-layer="1612" from-port="2" to-layer="1614" to-port="0" />
		<edge from-layer="1613" from-port="0" to-layer="1614" to-port="1" />
		<edge from-layer="1614" from-port="2" to-layer="1617" to-port="0" />
		<edge from-layer="1614" from-port="2" to-layer="1629" to-port="0" />
		<edge from-layer="1615" from-port="0" to-layer="1616" to-port="0" />
		<edge from-layer="1616" from-port="1" to-layer="1617" to-port="1" />
		<edge from-layer="1617" from-port="2" to-layer="1620" to-port="0" />
		<edge from-layer="1618" from-port="0" to-layer="1619" to-port="0" />
		<edge from-layer="1619" from-port="1" to-layer="1620" to-port="1" />
		<edge from-layer="1620" from-port="2" to-layer="1621" to-port="0" />
		<edge from-layer="1621" from-port="2" to-layer="1623" to-port="0" />
		<edge from-layer="1622" from-port="0" to-layer="1623" to-port="1" />
		<edge from-layer="1623" from-port="2" to-layer="1626" to-port="0" />
		<edge from-layer="1624" from-port="0" to-layer="1625" to-port="0" />
		<edge from-layer="1625" from-port="1" to-layer="1626" to-port="1" />
		<edge from-layer="1626" from-port="2" to-layer="1653" to-port="0" />
		<edge from-layer="1627" from-port="0" to-layer="1628" to-port="0" />
		<edge from-layer="1628" from-port="1" to-layer="1629" to-port="1" />
		<edge from-layer="1629" from-port="2" to-layer="1632" to-port="0" />
		<edge from-layer="1630" from-port="0" to-layer="1631" to-port="0" />
		<edge from-layer="1631" from-port="1" to-layer="1632" to-port="1" />
		<edge from-layer="1632" from-port="2" to-layer="1633" to-port="0" />
		<edge from-layer="1633" from-port="2" to-layer="1635" to-port="0" />
		<edge from-layer="1634" from-port="0" to-layer="1635" to-port="1" />
		<edge from-layer="1635" from-port="2" to-layer="1637" to-port="0" />
		<edge from-layer="1636" from-port="0" to-layer="1637" to-port="1" />
		<edge from-layer="1637" from-port="2" to-layer="1653" to-port="1" />
		<edge from-layer="1638" from-port="0" to-layer="1639" to-port="1" />
		<edge from-layer="1639" from-port="2" to-layer="1642" to-port="0" />
		<edge from-layer="1640" from-port="0" to-layer="1641" to-port="0" />
		<edge from-layer="1641" from-port="1" to-layer="1642" to-port="1" />
		<edge from-layer="1642" from-port="2" to-layer="1645" to-port="0" />
		<edge from-layer="1643" from-port="0" to-layer="1644" to-port="0" />
		<edge from-layer="1644" from-port="1" to-layer="1645" to-port="1" />
		<edge from-layer="1645" from-port="2" to-layer="1646" to-port="0" />
		<edge from-layer="1646" from-port="2" to-layer="1648" to-port="0" />
		<edge from-layer="1647" from-port="0" to-layer="1648" to-port="1" />
		<edge from-layer="1648" from-port="2" to-layer="1653" to-port="2" />
		<edge from-layer="1649" from-port="0" to-layer="1650" to-port="0" />
		<edge from-layer="1650" from-port="1" to-layer="1653" to-port="3" />
		<edge from-layer="1651" from-port="0" to-layer="1652" to-port="0" />
		<edge from-layer="1652" from-port="1" to-layer="1653" to-port="4" />
		<edge from-layer="1653" from-port="5" to-layer="1655" to-port="0" />
		<edge from-layer="1654" from-port="0" to-layer="1655" to-port="1" />
		<edge from-layer="1655" from-port="2" to-layer="1657" to-port="0" />
		<edge from-layer="1656" from-port="0" to-layer="1657" to-port="1" />
		<edge from-layer="1657" from-port="2" to-layer="1660" to-port="0" />
		<edge from-layer="1658" from-port="0" to-layer="1659" to-port="0" />
		<edge from-layer="1659" from-port="1" to-layer="1660" to-port="1" />
		<edge from-layer="1660" from-port="2" to-layer="1663" to-port="0" />
		<edge from-layer="1661" from-port="0" to-layer="1662" to-port="0" />
		<edge from-layer="1662" from-port="1" to-layer="1663" to-port="1" />
		<edge from-layer="1663" from-port="2" to-layer="1665" to-port="0" />
		<edge from-layer="1664" from-port="0" to-layer="1665" to-port="1" />
		<edge from-layer="1665" from-port="2" to-layer="1666" to-port="1" />
		<edge from-layer="1666" from-port="2" to-layer="1668" to-port="0" />
		<edge from-layer="1667" from-port="0" to-layer="1668" to-port="1" />
		<edge from-layer="1668" from-port="2" to-layer="1671" to-port="0" />
		<edge from-layer="1669" from-port="0" to-layer="1670" to-port="0" />
		<edge from-layer="1670" from-port="1" to-layer="1671" to-port="1" />
		<edge from-layer="1671" from-port="2" to-layer="1674" to-port="0" />
		<edge from-layer="1672" from-port="0" to-layer="1673" to-port="0" />
		<edge from-layer="1673" from-port="1" to-layer="1674" to-port="1" />
		<edge from-layer="1674" from-port="2" to-layer="1677" to-port="0" />
		<edge from-layer="1674" from-port="2" to-layer="1725" to-port="0" />
		<edge from-layer="1674" from-port="2" to-layer="1735" to-port="1" />
		<edge from-layer="1675" from-port="2" to-layer="1688" to-port="0" />
		<edge from-layer="1675" from-port="2" to-layer="1676" to-port="0" />
		<edge from-layer="1676" from-port="5" to-layer="1693" to-port="0" />
		<edge from-layer="1677" from-port="2" to-layer="1711" to-port="0" />
		<edge from-layer="1677" from-port="2" to-layer="1680" to-port="0" />
		<edge from-layer="1678" from-port="0" to-layer="1679" to-port="0" />
		<edge from-layer="1679" from-port="1" to-layer="1680" to-port="1" />
		<edge from-layer="1680" from-port="2" to-layer="1683" to-port="0" />
		<edge from-layer="1681" from-port="0" to-layer="1682" to-port="0" />
		<edge from-layer="1682" from-port="1" to-layer="1683" to-port="1" />
		<edge from-layer="1683" from-port="2" to-layer="1684" to-port="0" />
		<edge from-layer="1684" from-port="2" to-layer="1687" to-port="0" />
		<edge from-layer="1685" from-port="0" to-layer="1686" to-port="0" />
		<edge from-layer="1686" from-port="1" to-layer="1687" to-port="1" />
		<edge from-layer="1687" from-port="2" to-layer="1689" to-port="0" />
		<edge from-layer="1688" from-port="5" to-layer="1689" to-port="1" />
		<edge from-layer="1689" from-port="2" to-layer="1692" to-port="0" />
		<edge from-layer="1690" from-port="0" to-layer="1691" to-port="0" />
		<edge from-layer="1691" from-port="1" to-layer="1692" to-port="1" />
		<edge from-layer="1692" from-port="2" to-layer="1693" to-port="1" />
		<edge from-layer="1693" from-port="2" to-layer="1696" to-port="0" />
		<edge from-layer="1694" from-port="0" to-layer="1695" to-port="0" />
		<edge from-layer="1695" from-port="1" to-layer="1696" to-port="1" />
		<edge from-layer="1696" from-port="2" to-layer="1699" to-port="0" />
		<edge from-layer="1697" from-port="0" to-layer="1698" to-port="0" />
		<edge from-layer="1698" from-port="1" to-layer="1699" to-port="1" />
		<edge from-layer="1699" from-port="2" to-layer="1701" to-port="0" />
		<edge from-layer="1700" from-port="0" to-layer="1701" to-port="1" />
		<edge from-layer="1701" from-port="2" to-layer="1702" to-port="0" />
		<edge from-layer="1702" from-port="2" to-layer="1704" to-port="0" />
		<edge from-layer="1703" from-port="0" to-layer="1704" to-port="1" />
		<edge from-layer="1704" from-port="4" to-layer="1706" to-port="1" />
		<edge from-layer="1704" from-port="3" to-layer="1705" to-port="1" />
		<edge from-layer="1704" from-port="5" to-layer="1707" to-port="1" />
		<edge from-layer="1705" from-port="2" to-layer="1708" to-port="0" />
		<edge from-layer="1706" from-port="2" to-layer="1708" to-port="1" />
		<edge from-layer="1707" from-port="2" to-layer="1708" to-port="2" />
		<edge from-layer="1708" from-port="3" to-layer="1720" to-port="0" />
		<edge from-layer="1709" from-port="0" to-layer="1710" to-port="0" />
		<edge from-layer="1710" from-port="1" to-layer="1711" to-port="1" />
		<edge from-layer="1711" from-port="2" to-layer="1714" to-port="0" />
		<edge from-layer="1712" from-port="0" to-layer="1713" to-port="0" />
		<edge from-layer="1713" from-port="1" to-layer="1714" to-port="1" />
		<edge from-layer="1714" from-port="2" to-layer="1715" to-port="0" />
		<edge from-layer="1715" from-port="2" to-layer="1716" to-port="0" />
		<edge from-layer="1716" from-port="1" to-layer="1718" to-port="0" />
		<edge from-layer="1717" from-port="0" to-layer="1718" to-port="1" />
		<edge from-layer="1718" from-port="2" to-layer="1719" to-port="0" />
		<edge from-layer="1719" from-port="2" to-layer="1720" to-port="1" />
		<edge from-layer="1720" from-port="2" to-layer="1721" to-port="0" />
		<edge from-layer="1721" from-port="2" to-layer="1722" to-port="0" />
		<edge from-layer="1722" from-port="2" to-layer="1724" to-port="0" />
		<edge from-layer="1723" from-port="0" to-layer="1724" to-port="1" />
		<edge from-layer="1724" from-port="2" to-layer="1725" to-port="1" />
		<edge from-layer="1724" from-port="2" to-layer="1736" to-port="1" />
		<edge from-layer="1725" from-port="2" to-layer="1728" to-port="0" />
		<edge from-layer="1726" from-port="0" to-layer="1727" to-port="0" />
		<edge from-layer="1727" from-port="1" to-layer="1728" to-port="1" />
		<edge from-layer="1728" from-port="2" to-layer="1731" to-port="0" />
		<edge from-layer="1729" from-port="0" to-layer="1730" to-port="0" />
		<edge from-layer="1730" from-port="1" to-layer="1731" to-port="1" />
		<edge from-layer="1731" from-port="2" to-layer="1732" to-port="0" />
		<edge from-layer="1732" from-port="1" to-layer="1734" to-port="0" />
		<edge from-layer="1733" from-port="0" to-layer="1734" to-port="1" />
		<edge from-layer="1734" from-port="3" to-layer="1736" to-port="0" />
		<edge from-layer="1734" from-port="2" to-layer="1735" to-port="0" />
		<edge from-layer="1735" from-port="2" to-layer="1737" to-port="0" />
		<edge from-layer="1736" from-port="2" to-layer="1737" to-port="1" />
		<edge from-layer="1737" from-port="2" to-layer="1739" to-port="0" />
		<edge from-layer="1738" from-port="0" to-layer="1739" to-port="1" />
		<edge from-layer="1739" from-port="2" to-layer="1742" to-port="0" />
		<edge from-layer="1740" from-port="0" to-layer="1741" to-port="0" />
		<edge from-layer="1741" from-port="1" to-layer="1742" to-port="1" />
		<edge from-layer="1742" from-port="2" to-layer="1745" to-port="0" />
		<edge from-layer="1743" from-port="0" to-layer="1744" to-port="0" />
		<edge from-layer="1744" from-port="1" to-layer="1745" to-port="1" />
		<edge from-layer="1745" from-port="2" to-layer="1759" to-port="0" />
		<edge from-layer="1745" from-port="2" to-layer="1748" to-port="0" />
		<edge from-layer="1746" from-port="0" to-layer="1747" to-port="0" />
		<edge from-layer="1747" from-port="1" to-layer="1748" to-port="1" />
		<edge from-layer="1748" from-port="2" to-layer="1751" to-port="0" />
		<edge from-layer="1749" from-port="0" to-layer="1750" to-port="0" />
		<edge from-layer="1750" from-port="1" to-layer="1751" to-port="1" />
		<edge from-layer="1751" from-port="2" to-layer="1752" to-port="0" />
		<edge from-layer="1752" from-port="1" to-layer="1755" to-port="0" />
		<edge from-layer="1753" from-port="0" to-layer="1754" to-port="0" />
		<edge from-layer="1754" from-port="1" to-layer="1755" to-port="1" />
		<edge from-layer="1755" from-port="2" to-layer="1758" to-port="0" />
		<edge from-layer="1756" from-port="0" to-layer="1757" to-port="0" />
		<edge from-layer="1757" from-port="1" to-layer="1758" to-port="1" />
		<edge from-layer="1758" from-port="2" to-layer="1759" to-port="1" />
		<edge from-layer="1759" from-port="2" to-layer="1760" to-port="0" />
		<edge from-layer="1760" from-port="1" to-layer="1762" to-port="0" />
		<edge from-layer="1761" from-port="0" to-layer="1762" to-port="1" />
		<edge from-layer="1762" from-port="2" to-layer="1765" to-port="0" />
		<edge from-layer="1763" from-port="0" to-layer="1764" to-port="0" />
		<edge from-layer="1764" from-port="1" to-layer="1765" to-port="1" />
		<edge from-layer="1765" from-port="2" to-layer="1768" to-port="0" />
		<edge from-layer="1766" from-port="0" to-layer="1767" to-port="0" />
		<edge from-layer="1767" from-port="1" to-layer="1768" to-port="1" />
		<edge from-layer="1768" from-port="2" to-layer="1771" to-port="0" />
		<edge from-layer="1768" from-port="2" to-layer="1775" to-port="0" />
		<edge from-layer="1769" from-port="0" to-layer="1770" to-port="0" />
		<edge from-layer="1770" from-port="1" to-layer="1771" to-port="1" />
		<edge from-layer="1771" from-port="2" to-layer="1774" to-port="0" />
		<edge from-layer="1772" from-port="0" to-layer="1773" to-port="0" />
		<edge from-layer="1773" from-port="1" to-layer="1774" to-port="1" />
		<edge from-layer="1774" from-port="2" to-layer="1819" to-port="0" />
		<edge from-layer="1775" from-port="2" to-layer="1778" to-port="0" />
		<edge from-layer="1776" from-port="0" to-layer="1777" to-port="0" />
		<edge from-layer="1777" from-port="1" to-layer="1778" to-port="1" />
		<edge from-layer="1778" from-port="2" to-layer="1781" to-port="0" />
		<edge from-layer="1779" from-port="0" to-layer="1780" to-port="0" />
		<edge from-layer="1780" from-port="1" to-layer="1781" to-port="1" />
		<edge from-layer="1781" from-port="2" to-layer="1782" to-port="0" />
		<edge from-layer="1782" from-port="1" to-layer="1785" to-port="0" />
		<edge from-layer="1783" from-port="0" to-layer="1784" to-port="0" />
		<edge from-layer="1784" from-port="1" to-layer="1785" to-port="1" />
		<edge from-layer="1785" from-port="2" to-layer="1788" to-port="0" />
		<edge from-layer="1786" from-port="0" to-layer="1787" to-port="0" />
		<edge from-layer="1787" from-port="1" to-layer="1788" to-port="1" />
		<edge from-layer="1788" from-port="2" to-layer="1789" to-port="0" />
		<edge from-layer="1789" from-port="1" to-layer="1792" to-port="0" />
		<edge from-layer="1790" from-port="0" to-layer="1791" to-port="0" />
		<edge from-layer="1791" from-port="1" to-layer="1792" to-port="1" />
		<edge from-layer="1792" from-port="2" to-layer="1795" to-port="0" />
		<edge from-layer="1793" from-port="0" to-layer="1794" to-port="0" />
		<edge from-layer="1794" from-port="1" to-layer="1795" to-port="1" />
		<edge from-layer="1795" from-port="2" to-layer="1796" to-port="0" />
		<edge from-layer="1796" from-port="2" to-layer="1827" to-port="0" />
		<edge from-layer="1796" from-port="2" to-layer="1798" to-port="0" />
		<edge from-layer="1797" from-port="0" to-layer="1798" to-port="1" />
		<edge from-layer="1798" from-port="2" to-layer="1799" to-port="0" />
		<edge from-layer="1799" from-port="1" to-layer="1801" to-port="0" />
		<edge from-layer="1800" from-port="0" to-layer="1801" to-port="1" />
		<edge from-layer="1801" from-port="2" to-layer="1803" to-port="0" />
		<edge from-layer="1801" from-port="2" to-layer="1802" to-port="0" />
		<edge from-layer="1802" from-port="2" to-layer="1803" to-port="1" />
		<edge from-layer="1803" from-port="2" to-layer="1805" to-port="0" />
		<edge from-layer="1804" from-port="0" to-layer="1805" to-port="1" />
		<edge from-layer="1805" from-port="2" to-layer="1808" to-port="0" />
		<edge from-layer="1806" from-port="0" to-layer="1807" to-port="0" />
		<edge from-layer="1807" from-port="1" to-layer="1808" to-port="1" />
		<edge from-layer="1808" from-port="2" to-layer="1811" to-port="0" />
		<edge from-layer="1809" from-port="0" to-layer="1810" to-port="0" />
		<edge from-layer="1810" from-port="1" to-layer="1811" to-port="1" />
		<edge from-layer="1811" from-port="2" to-layer="1812" to-port="0" />
		<edge from-layer="1812" from-port="1" to-layer="1815" to-port="0" />
		<edge from-layer="1813" from-port="0" to-layer="1814" to-port="0" />
		<edge from-layer="1814" from-port="1" to-layer="1815" to-port="1" />
		<edge from-layer="1815" from-port="2" to-layer="1818" to-port="0" />
		<edge from-layer="1816" from-port="0" to-layer="1817" to-port="0" />
		<edge from-layer="1817" from-port="1" to-layer="1818" to-port="1" />
		<edge from-layer="1818" from-port="2" to-layer="1819" to-port="1" />
		<edge from-layer="1819" from-port="2" to-layer="1820" to-port="0" />
		<edge from-layer="1820" from-port="1" to-layer="1822" to-port="0" />
		<edge from-layer="1821" from-port="0" to-layer="1822" to-port="1" />
		<edge from-layer="1822" from-port="2" to-layer="1824" to-port="0" />
		<edge from-layer="1823" from-port="0" to-layer="1824" to-port="1" />
		<edge from-layer="1824" from-port="3" to-layer="1915" to-port="0" />
		<edge from-layer="1824" from-port="2" to-layer="1931" to-port="0" />
		<edge from-layer="1824" from-port="3" to-layer="1920" to-port="0" />
		<edge from-layer="1824" from-port="3" to-layer="1928" to-port="0" />
		<edge from-layer="1824" from-port="3" to-layer="1924" to-port="0" />
		<edge from-layer="1825" from-port="0" to-layer="1826" to-port="0" />
		<edge from-layer="1826" from-port="1" to-layer="1835" to-port="0" />
		<edge from-layer="1827" from-port="2" to-layer="1828" to-port="0" />
		<edge from-layer="1828" from-port="1" to-layer="1831" to-port="0" />
		<edge from-layer="1829" from-port="0" to-layer="1830" to-port="0" />
		<edge from-layer="1830" from-port="1" to-layer="1831" to-port="1" />
		<edge from-layer="1831" from-port="2" to-layer="1832" to-port="0" />
		<edge from-layer="1832" from-port="2" to-layer="1850" to-port="0" />
		<edge from-layer="1832" from-port="2" to-layer="1834" to-port="0" />
		<edge from-layer="1832" from-port="2" to-layer="1842" to-port="0" />
		<edge from-layer="1832" from-port="2" to-layer="1858" to-port="0" />
		<edge from-layer="1833" from-port="0" to-layer="1834" to-port="2" />
		<edge from-layer="1834" from-port="3" to-layer="1835" to-port="1" />
		<edge from-layer="1835" from-port="2" to-layer="1836" to-port="0" />
		<edge from-layer="1836" from-port="2" to-layer="1837" to-port="1" />
		<edge from-layer="1837" from-port="2" to-layer="1838" to-port="0" />
		<edge from-layer="1838" from-port="2" to-layer="1863" to-port="0" />
		<edge from-layer="1839" from-port="0" to-layer="1840" to-port="0" />
		<edge from-layer="1840" from-port="1" to-layer="1843" to-port="0" />
		<edge from-layer="1841" from-port="0" to-layer="1842" to-port="2" />
		<edge from-layer="1842" from-port="3" to-layer="1843" to-port="1" />
		<edge from-layer="1843" from-port="2" to-layer="1844" to-port="0" />
		<edge from-layer="1844" from-port="2" to-layer="1845" to-port="1" />
		<edge from-layer="1845" from-port="2" to-layer="1846" to-port="0" />
		<edge from-layer="1846" from-port="2" to-layer="1863" to-port="1" />
		<edge from-layer="1847" from-port="0" to-layer="1848" to-port="0" />
		<edge from-layer="1848" from-port="1" to-layer="1851" to-port="0" />
		<edge from-layer="1849" from-port="0" to-layer="1850" to-port="2" />
		<edge from-layer="1850" from-port="3" to-layer="1851" to-port="1" />
		<edge from-layer="1851" from-port="2" to-layer="1852" to-port="0" />
		<edge from-layer="1852" from-port="2" to-layer="1853" to-port="1" />
		<edge from-layer="1853" from-port="2" to-layer="1854" to-port="0" />
		<edge from-layer="1854" from-port="2" to-layer="1863" to-port="2" />
		<edge from-layer="1855" from-port="0" to-layer="1856" to-port="0" />
		<edge from-layer="1856" from-port="1" to-layer="1859" to-port="0" />
		<edge from-layer="1857" from-port="0" to-layer="1858" to-port="2" />
		<edge from-layer="1858" from-port="3" to-layer="1859" to-port="1" />
		<edge from-layer="1859" from-port="2" to-layer="1860" to-port="0" />
		<edge from-layer="1860" from-port="2" to-layer="1861" to-port="1" />
		<edge from-layer="1861" from-port="2" to-layer="1862" to-port="0" />
		<edge from-layer="1862" from-port="2" to-layer="1863" to-port="3" />
		<edge from-layer="1863" from-port="4" to-layer="1875" to-port="0" />
		<edge from-layer="1863" from-port="4" to-layer="1873" to-port="0" />
		<edge from-layer="1863" from-port="4" to-layer="1864" to-port="0" />
		<edge from-layer="1863" from-port="4" to-layer="1866" to-port="0" />
		<edge from-layer="1864" from-port="5" to-layer="1865" to-port="0" />
		<edge from-layer="1865" from-port="2" to-layer="1882" to-port="1" />
		<edge from-layer="1865" from-port="2" to-layer="1868" to-port="0" />
		<edge from-layer="1866" from-port="5" to-layer="1867" to-port="0" />
		<edge from-layer="1867" from-port="2" to-layer="1882" to-port="0" />
		<edge from-layer="1867" from-port="2" to-layer="1868" to-port="1" />
		<edge from-layer="1868" from-port="2" to-layer="1871" to-port="0" />
		<edge from-layer="1869" from-port="0" to-layer="1870" to-port="0" />
		<edge from-layer="1870" from-port="1" to-layer="1871" to-port="1" />
		<edge from-layer="1871" from-port="2" to-layer="1872" to-port="0" />
		<edge from-layer="1872" from-port="2" to-layer="1886" to-port="0" />
		<edge from-layer="1873" from-port="5" to-layer="1874" to-port="0" />
		<edge from-layer="1874" from-port="2" to-layer="1877" to-port="0" />
		<edge from-layer="1874" from-port="2" to-layer="1884" to-port="1" />
		<edge from-layer="1875" from-port="5" to-layer="1876" to-port="0" />
		<edge from-layer="1876" from-port="2" to-layer="1877" to-port="1" />
		<edge from-layer="1876" from-port="2" to-layer="1884" to-port="0" />
		<edge from-layer="1877" from-port="2" to-layer="1880" to-port="0" />
		<edge from-layer="1878" from-port="0" to-layer="1879" to-port="0" />
		<edge from-layer="1879" from-port="1" to-layer="1880" to-port="1" />
		<edge from-layer="1880" from-port="2" to-layer="1881" to-port="0" />
		<edge from-layer="1881" from-port="2" to-layer="1886" to-port="1" />
		<edge from-layer="1882" from-port="2" to-layer="1883" to-port="0" />
		<edge from-layer="1883" from-port="2" to-layer="1886" to-port="2" />
		<edge from-layer="1884" from-port="2" to-layer="1885" to-port="0" />
		<edge from-layer="1885" from-port="2" to-layer="1886" to-port="3" />
		<edge from-layer="1886" from-port="4" to-layer="1898" to-port="0" />
		<edge from-layer="1886" from-port="4" to-layer="1896" to-port="0" />
		<edge from-layer="1886" from-port="4" to-layer="1887" to-port="0" />
		<edge from-layer="1886" from-port="4" to-layer="1889" to-port="0" />
		<edge from-layer="1887" from-port="5" to-layer="1888" to-port="0" />
		<edge from-layer="1888" from-port="2" to-layer="1905" to-port="0" />
		<edge from-layer="1888" from-port="2" to-layer="1894" to-port="0" />
		<edge from-layer="1889" from-port="5" to-layer="1890" to-port="0" />
		<edge from-layer="1890" from-port="2" to-layer="1893" to-port="0" />
		<edge from-layer="1891" from-port="0" to-layer="1892" to-port="0" />
		<edge from-layer="1892" from-port="1" to-layer="1893" to-port="1" />
		<edge from-layer="1893" from-port="2" to-layer="1905" to-port="1" />
		<edge from-layer="1893" from-port="2" to-layer="1894" to-port="1" />
		<edge from-layer="1894" from-port="2" to-layer="1895" to-port="0" />
		<edge from-layer="1895" from-port="2" to-layer="1909" to-port="0" />
		<edge from-layer="1896" from-port="5" to-layer="1897" to-port="0" />
		<edge from-layer="1897" from-port="2" to-layer="1907" to-port="0" />
		<edge from-layer="1897" from-port="2" to-layer="1903" to-port="0" />
		<edge from-layer="1898" from-port="5" to-layer="1899" to-port="0" />
		<edge from-layer="1899" from-port="2" to-layer="1902" to-port="0" />
		<edge from-layer="1900" from-port="0" to-layer="1901" to-port="0" />
		<edge from-layer="1901" from-port="1" to-layer="1902" to-port="1" />
		<edge from-layer="1902" from-port="2" to-layer="1903" to-port="1" />
		<edge from-layer="1902" from-port="2" to-layer="1907" to-port="1" />
		<edge from-layer="1903" from-port="2" to-layer="1904" to-port="0" />
		<edge from-layer="1904" from-port="2" to-layer="1909" to-port="1" />
		<edge from-layer="1905" from-port="2" to-layer="1906" to-port="0" />
		<edge from-layer="1906" from-port="2" to-layer="1909" to-port="2" />
		<edge from-layer="1907" from-port="2" to-layer="1908" to-port="0" />
		<edge from-layer="1908" from-port="2" to-layer="1909" to-port="3" />
		<edge from-layer="1909" from-port="4" to-layer="1914" to-port="0" />
		<edge from-layer="1910" from-port="0" to-layer="1911" to-port="1" />
		<edge from-layer="1911" from-port="2" to-layer="1912" to-port="0" />
		<edge from-layer="1912" from-port="2" to-layer="1913" to-port="0" />
		<edge from-layer="1913" from-port="1" to-layer="1914" to-port="1" />
		<edge from-layer="1914" from-port="2" to-layer="1927" to-port="0" />
		<edge from-layer="1915" from-port="1" to-layer="1917" to-port="0" />
		<edge from-layer="1916" from-port="0" to-layer="1917" to-port="1" />
		<edge from-layer="1917" from-port="2" to-layer="1918" to-port="0" />
		<edge from-layer="1918" from-port="1" to-layer="1922" to-port="0" />
		<edge from-layer="1919" from-port="0" to-layer="1920" to-port="1" />
		<edge from-layer="1920" from-port="2" to-layer="1921" to-port="0" />
		<edge from-layer="1921" from-port="1" to-layer="1922" to-port="1" />
		<edge from-layer="1922" from-port="2" to-layer="1923" to-port="0" />
		<edge from-layer="1923" from-port="1" to-layer="1924" to-port="1" />
		<edge from-layer="1924" from-port="2" to-layer="1925" to-port="0" />
		<edge from-layer="1924" from-port="2" to-layer="1928" to-port="1" />
		<edge from-layer="1925" from-port="2" to-layer="1926" to-port="0" />
		<edge from-layer="1926" from-port="2" to-layer="1927" to-port="1" />
		<edge from-layer="1927" from-port="2" to-layer="1930" to-port="0" />
		<edge from-layer="1928" from-port="2" to-layer="1929" to-port="0" />
	</edges>
	<rt_info>
		<Runtime_version value="2026.0.0-20965-c6d6a13a886-releases/2026/0" />
		<conversion_parameters>
			<input_model value="DIR/../onnx/rtv4_hgnetv2_s.onnx" />
			<is_python_object value="False" />
		</conversion_parameters>
	</rt_info>
</net>
